Regression/Regression.pth (torch_old, 7099 bytes, 14 tensors)

layers.0.weight_mu f4 [16, 1]
-0.36378977 -0.50868857 -0.45416588 -0.45167503 0.40882263 -0.5132011 -0.3527597 -0.38654605
-0.5983624 -0.86033773 -0.78015864 -0.6161816 0.56166303 -0.31365544 -0.16292553 1.6768686
00000000: a742 babe 6a39 02bf 6e88 e8be f341 e7be
00000010: 3351 d13e 2661 03bf eb9c b4be 5de9 c5be
00000020: 472e 19bf 183f 5cbf 7ab8 47bf 14be 1dbf
00000030: 26c9 0f3f 7297 a0be f3d5 26be a1a3 d63f

layers.0.weight_rho f4 [16, 1]
-1.7448246 -0.0373767 -1.9126744 -1.5765268 -1.7460853 -2.139095 -1.905306 -0.99410963
-1.2983345 -3.7339885 -0.13344303 -0.21632554 -2.1780953 -2.1058261 -1.816258 -3.9541943
00000000: 6a56 dfbf 5018 19bd 84d2 f4bf a1cb c9bf
00000010: b97f dfbf efe6 08c0 11e1 f3bf f87d 7ebf
00000020: d32f a6bf abf9 6ec0 4aa5 08be 7184 5dbe
00000030: ea65 0bc0 dbc5 06c0 247b e8bf 8511 7dc0

layers.0.bias_mu f4 [16]
-0.3063068 -0.4678347 -0.5201636 -0.16394448 -0.35740152 -0.1827747 0.024478504 -0.21260434
-0.20295893 0.48362744 -0.3974315 -0.6524354 -0.34541214 -0.3934578 -0.1885109 0.14769915
00000000: 3fd4 9cbe 0888 efbe 7129 05bf 10e1 27be
00000010: 55fd b6be 4a29 3bbe 2587 c83c f4b4 59be
00000020: 77d4 4fbe 049e f73e 247c cbbe 0206 27bf
00000030: dcd9 b0be 4d73 c9be 0009 41be 723e 173e

layers.0.bias_rho f4 [16]
-2.5386171 -2.732658 -4.655328 -2.9248772 -2.826701 -2.8763103 -3.048456 -2.8408687
-3.02998 -5.3251686 -2.3248377 -2.573063 -2.9735186 -3.01042 -3.0854297 -5.721281
00000000: b478 22c0 dee3 2ec0 72f8 94c0 3031 3bc0
00000010: abe8 34c0 7815 38c0 e719 43c0 cbd0 35c0
00000020: 31eb 41c0 c867 aac0 24ca 14c0 10ad 24c0
00000030: 214e 3ec0 b9aa 40c0 ae77 45c0 bc14 b7c0

layers.1.weight_mu f4 [16, 16]
-0.31817925 -0.44466326 0.2464855 0.74798125 0.23501061 0.58021295 0.28659537 0.17835152
-0.40542036 -0.5667449 -0.13855255 -0.26385257 0.49510154 -0.634673 0.16051018 0.6636736
0.21267237 0.34955376 0.43526655 -0.36715767 -0.4564093 -0.5539231 0.5304946 0.44582677
0.22981767 0.74483144 -0.15377827 0.58431107 -0.3679088 0.34906396 0.23152986 -1.0048959
0.70152915 -0.53740406 -0.69592065 -0.7601281 -0.44603664 0.46511373 -0.60252315 0.5745271
0.46132228 -0.24447197 0.29029176 0.35060376 -0.7741002 -0.6142036 -0.31227466 -0.14235091
0.3114318 -0.3600847 -0.80245346 -0.53471994 0.7610952 0.4715128 0.35054109 -0.13979818
-0.052292224 -0.72611326 0.79293746 -0.32669747 0.5942533 -0.6392711 0.24480592 0.19282158
-0.42931986 -0.34825963 0.52324307 -0.88717884 -0.51427853 -0.5017342 -0.51954365 -0.48289686
-0.7969695 -0.5948342 -0.5199751 0.08841812 0.32599992 -0.31672958 0.7021549 -0.38944733
-0.11734455 0.31744644 -0.34224737 0.3707283 0.70704764 0.52735466 0.85969275 -0.6235626
-0.26770753 -0.276485 0.5243921 -0.1740842 -0.33249947 -0.5133762 -1.1489066 -0.20785855
0.23169746 0.5619671 -0.5942706 0.37298653 0.25334316 0.71762216 -0.44380438 0.3500057
0.50451547 0.2640655 0.2974738 -0.284354 0.40912402 0.21856569 -0.92588186 -0.5301873
-0.5618908 0.5838895 -0.33198568 0.18426739 -0.56655264 0.061073735 -0.35087344 0.4127838
0.54716706 0.3958549 0.45020872 -0.5465596 0.46732533 0.59358966 0.4090855 0.23371483
0.036976416 0.08381364 -0.16436832 -0.47087774 -0.7012133 0.09988158 0.5548504 0.53237617
-0.48455694 -0.28491873 0.060291898 0.49401486 -0.69795835 0.58065253 0.39489895 0.11176347
0.37996942 -0.5918476 0.39732844 0.4996594 0.12424489 -0.45976734 0.40363127 0.4437914
-0.4443958 -0.15459484 0.6805285 -0.4394747 0.5268562 0.445559 -0.3226583 -0.6096738
-0.6851553 0.58404076 0.21960643 0.20391537 -0.34770328 0.05331116 -0.65846384 0.4966426
-0.062229995 -0.6303261 -0.29735473 -0.5150453 0.62823355 0.31056 0.939719 0.21525328
0.19870174 -0.59608155 0.04465561 -0.5615544 0.692474 -0.12786521 0.67800534 -0.069961414
-0.022289086 -0.5383001 0.4294017 0.9099365 0.2641264 -0.52782327 0.29433298 -0.5314298
-0.6474625 0.63183993 0.13104734 -0.76570725 -0.45257384 -0.015656503 0.19049612 -0.5447248
0.28344718 0.5363257 -0.6018175 0.41076 -0.50144756 0.3659568 0.36960116 -0.32792202
-0.54044205 -0.34971833 0.35990152 -0.0024121532 -0.5171557 0.37924713 -0.57264143 -0.6740375
0.26037508 -0.5258533 0.27156124 0.15169007 -1.0251073 -0.47313473 -0.63748926 -0.6614128
-0.50772476 0.3048174 0.84714556 -0.5257996 0.99791104 -0.5140962 0.26789877 -0.10893296
-0.6726167 -0.06231359 -0.43510646 0.050368268 -0.5303134 0.5100737 0.6482652 -0.6892165
-0.44982305 -0.24730448 -0.43100545 0.49322948 0.055680953 -0.351071 0.21842054 0.39567637
0.48782822 0.32062477 -0.86055666 0.7699001 -0.21102963 -0.62011904 -0.31601834 -0.93524534
00000000: 64e8 a2be e7aa e3be b266 7c3e b37b 3f3f
00000010: 9fa6 703e d688 143f a1bc 923e c8a1 363e
00000020: 4293 cfbe 3216 11bf b8e0 0dbe af17 87be
00000030: f37d fd3e ee79 22bf c85c 243e 83e6 293f
00000040: c9c6 593e b6f8 b23e 42db de3e 17fc bbbe
00000050: 7bae e9be e7cd 0dbf 7ece 073f 6843 e43e
00000060: 5355 6b3e 46ad 3e3f 0d78 1dbe 6995 153f
00000070: 8b5e bcbe 83b8 b23e 2a16 6d3e 6ea0 80bf
00000080: 6a97 333f 5093 09bf db27 32bf c197 42bf
00000090: ea5e e4be 6323 ee3e f53e 1abf 3514 133f
000000a0: 6f32 ec3e dc56 7abe 1fa1 943e 5682 b33e
000000b0: 6e2b 46bf 723c 1dbf 77e2 9fbe 70c4 11be
000000c0: fd73 9f3e 065d b8be 976d 4dbf 68e3 08bf
000000d0: 23d7 423f 206a f13e 1f7a b33e 4127 0fbe
000000e0: 5f30 56bd 8fe2 39bf f3fd 4a3f e444 a7be
000000f0: fc20 183f 45a7 23bf 67ae 7a3e 0573 453e
00000100: d0cf dbbe 164f b2be 42f3 053f 271e 63bf
00000110: c2a7 03bf a771 00bf d000 05bf 423e f7be
00000120: 3106 4cbf 0e47 18bf 171d 05bf 8f14 b53d
00000130: 76e9 a63e 612a a2be 6cc0 333f a465 c7be
00000140: 5752 f0bd 5788 a23e 0c3b afbe 1ad0 bd3e
00000150: 1301 353f b700 073f d314 5c3f cca1 1fbf
00000160: f610 89be 718f 8dbe 903e 063f 2143 32be
00000170: 5f3d aabe 9f6c 03bf 5f0f 93bf dfd8 54be
00000180: 1942 6d3e 13dd 0f3f 1e22 18bf 17f8 be3e
00000190: 32b6 813e 16b6 373f 543a e3be f233 b33e
000001a0: ed27 013f 9833 873e 7c4e 983e d996 91be
000001b0: b478 d13e afcf 5f3e 9806 6dbf 5bba 07bf
000001c0: 13d8 0fbf c879 153f 07fa a9be 97b0 3c3e
000001d0: 9809 11bf 7428 7a3d afa5 b3be 6658 d33e
000001e0: 2413 0c3f 7ead ca3e c281 e63e 54eb 0bbf
000001f0: 4445 ef3e 7ef5 173f a873 d13e f152 6f3e
00000200: 9574 173d 7ca6 ab3d 2b50 28be e316 f1be
00000210: b782 33bf b78e cc3d ad0a 0e3f ce49 083f
00000220: d917 f8be dee0 91be a3f4 763d 84ef fc3e
00000230: 66ad 32bf a5a5 143f 3230 ca3e 3fe4 e43d
00000240: 5a8b c23e 5383 17bf a26e cb3e 5bd3 ff3e
00000250: 1b74 fe3d a066 ebbe c2a8 ce3e a038 e33e
00000260: d987 e3be 1c4e 1ebe 1e37 2e3f d402 e1be
00000270: 0ce0 063f 4f20 e43e 7833 a5be 9513 1cbf
00000280: 5666 2fbf b283 153f 82e0 603e 31cf 503e
00000290: 2a06 b2be ce5c 5a3d 1691 28bf f047 fe3e
000002a0: e1e4 7ebd 0d5d 21bf e13e 98be 02da 03bf
000002b0: ead3 203f b801 9f3e 6d91 703f 5b6b 5c3e
000002c0: 7878 4b3e cd98 18bf cde8 363d 07c2 0fbf
000002d0: fa45 313f 19ef 02be c291 2d3f ee47 8fbd
000002e0: 9a97 b6bc 09ce 09bf 8ada db3e 99f1 683f
000002f0: 933b 873e 6d1f 07bf d0b2 963e c90b 08bf
00000300: 1ac0 25bf 43c0 213f 4631 063e 6405 44bf
00000310: c2b7 e7be 1142 80bc 6a11 433e 1673 0bbf
00000320: fd1f 913e a44c 093f b610 1abf 224f d23e
00000330: de5e 00bf b15e bb3e 5d3c bd3e 65e5 a7be
00000340: 695a 0abf 480e b3be 0345 b83e 3715 1ebb
00000350: 5164 04bf ae2c c23e a198 12bf b98d 2cbf
00000360: e24f 853e 529e 06bf 130a 8b3e a454 1b3e
00000370: b736 83bf b73e f2be 7f32 23bf 5952 29bf
00000380: 40fa 01bf 0711 9c3e 88de 583f cd9a 06bf
00000390: 1977 7f3f cf9b 03bf 072a 893e 3e18 dfbd
000003a0: 9c30 2cbf 893c 7fbd 46c6 debe f54e 4e3d
000003b0: 9ec2 07bf 3194 023f b5f4 253f 7e70 30bf
000003c0: 354f e6be 633d 7dbe bfac dcbe 9388 fc3e
000003d0: b611 643d 94bf b3be a2a9 5f3e 1896 ca3e
000003e0: 9fc4 f93e ee28 a43e 714d 5cbf 2c18 453f
000003f0: 2718 58be 1fc0 1ebf 28cd a1be 3d6c 6fbf

layers.1.weight_rho f4 [16, 16]
-1.756044 -0.9445202 0.5851131 0.11497258 -2.0177407 0.2350586 -1.671193 -1.4173754
-1.7523421 -2.4059527 -0.2650684 -2.0346923 -1.7866434 -1.751884 -1.133161 -4.7053213
0.06989073 -1.8653795 -2.1240177 -1.7804732 -1.362765 -0.85684776 -2.407211 -2.2098072
-2.2504861 -4.356527 -1.5843374 -2.0413427 -1.7571731 -0.24546419 -2.1857395 -4.2561145
-1.1310052 -1.0036627 -1.6014149 -1.0993973 -1.8297585 -1.748358 -2.0040138 -1.4042435
-2.266761 -2.2469275 -1.5545713 0.104340866 -1.5679827 0.37960327 -1.6558337 -3.4989579
-1.6083469 -1.8196032 -2.0749779 0.13899979 -0.806806 0.54828656 -0.42729554 -1.1792599
-1.3294647 -1.4125091 -0.47965935 -1.3007305 -0.5426274 -1.9108347 0.53430516 -3.1122465
-1.7006316 -2.0237222 -1.3850532 0.0063858926 0.6358372 0.40605524 -1.7922794 0.31879008
-0.87202907 -1.6460845 -1.317976 -1.1980655 -2.1448328 -1.8402233 0.18861619 -2.642113
0.60549736 -0.747129 -2.2009022 0.36620286 0.19018362 -0.42341736 -0.7691059 -1.870455
0.5298402 -1.9697688 0.01775985 0.44457385 -0.36183932 -1.7504303 -1.1736201 -1.7811342
0.32922354 -1.0536237 -1.8329325 -1.8444424 0.4831801 -1.3948072 -1.334672 -0.8645561
-0.82576257 -1.9907881 0.4608171 -2.33818 -1.7030786 0.05629933 0.25498936 -1.83399
0.026671652 -1.3236517 -1.7277079 -0.6924759 -1.2774504 0.42918405 -2.0866055 -0.14402747
-1.3962142 -1.7959598 -0.2951625 -2.1716661 -1.2966897 -1.3647715 0.48364124 -2.392649
0.6289987 -0.2959849 0.6746212 -1.7070682 -1.441256 -2.0678983 0.18101995 -1.1052102
-1.5421762 -2.1361833 0.27064317 0.5267365 0.3929048 0.37827143 -1.1768029 -2.7953074
-1.9083945 -1.2574713 -1.7264175 -1.5143512 -0.14560013 -1.8675575 -2.2783923 -0.98191094
-1.9812403 -2.0310779 -0.964405 -1.1710503 -1.4550266 0.052917775 0.5054541 -2.241139
-1.1088742 -0.018874412 -2.2876334 -0.21189737 -1.855426 0.3262061 -1.146139 -1.3580564
0.60988456 -1.6645806 0.18507409 -1.5122608 -2.1313024 -0.22248743 -1.4917482 -2.5179589
-0.6587341 0.21422899 -0.6098948 0.1319005 -1.2630057 0.5086592 -0.17256096 -0.45673504
-0.85902894 -1.3167306 -1.8213797 -0.7889508 -2.362025 -0.20173831 -1.5114591 -2.040901
-1.0350187 -0.8355343 -0.114774026 -1.5483365 -2.0020928 -1.9842321 -1.6357615 -1.5402896
-1.9639202 -1.8201783 -1.3626091 -1.9175086 -1.5112675 0.5120406 -0.6073462 -2.727333
-1.2427855 -1.0910017 -1.3150098 -0.3856802 0.27293715 -1.8101752 0.29358727 -0.17832422
-1.6018233 -1.6430794 -0.52103245 0.15814486 -0.0355134 0.51098496 -1.1085109 -2.502869
-1.5616964 -1.6123195 -0.53174543 -1.0354966 -0.19570531 0.45743036 -0.46483302 -0.7422667
-2.0400493 -0.3211299 -0.97483265 0.4848619 -1.274419 0.3896085 -1.6999611 -1.6509249
-2.1221814 -1.2251272 -2.4485013 -1.2134267 0.08602015 -1.6088771 -2.1948977 -1.5147046
-2.1344523 -4.514452 -0.329972 -0.69848025 -1.7674453 -2.3966384 -2.0039666 -3.149211
00000000: 0dc6 e0bf 13cc 71bf f9c9 153f be76 eb3d
00000010: aa22 01c0 34b3 703e a7e9 d5bf 8f6c b5bf
00000020: bf4c e0bf 21fb 19c0 0cb7 87be 6638 02c0
00000030: bbb0 e4bf bc3d e0bf 6b0b 91bf fe91 96c0
00000040: df22 8f3d c1c4 eebf e8ef 07c0 8ce6 e3bf
00000050: 156f aebf 605a 5bbf bf0f 1ac0 7b6d 0dc0
00000060: f707 10c0 ab68 8bc0 91cb cabf 5ca5 02c0
00000070: 0ceb e0bf f75a 7bbe 28e3 0bc0 1732 88c0
00000080: c7c4 90bf 0578 80bf 2afb ccbf 0db9 8cbf
00000090: 8735 eabf 32ca dfbf c341 00c0 40be b3bf
000000a0: 9d12 11c0 a9cd 0fc0 31fc c6bf aab0 d53d
000000b0: a8b3 c8bf 5c5b c23e 5cf2 d3bf edee 5fc0
000000c0: 50de cdbf c2e8 e8bf 70cc 04c0 f655 0e3e
000000d0: d78a 4ebf 825c 0c3f 7bc6 dabe fdf1 96bf
000000e0: e62b aabf 19cd b4bf e995 f5be 567e a6bf
000000f0: a1e9 0abf 3b96 f4bf 39c8 083f 0c2f 47c0
00000100: 4cae d9bf aa84 01c0 6c49 b1bf c040 d13b
00000110: 3ac6 223f 79e6 cf3e 6969 e5bf 7438 a33e
00000120: 4c3d 5fbf e6b2 d2bf 70b3 a8bf 365a 99bf
00000130: f144 09c0 708c ebbf 9a24 413e 6118 29c0
00000140: e001 1b3f d943 3fbf 95db 0cc0 f17e bb3e
00000150: 7fbf 423e 29ca d8be 20e4 44bf 126b efbf
00000160: 9ba3 073f 6221 fcbf 1b7d 913c 2f9f e33e
00000170: 0143 b9be 1a0e e0bf 2f39 96bf 35fc e3bf
00000180: fd8f a83e 24dd 86bf 889d eabf b016 ecbf
00000190: 6263 f73e 0b89 b2bf 88d6 aabf 8c53 5dbf
000001a0: 2d65 53bf 25d2 febf 38f0 eb3e bea4 15c0
000001b0: 7bfe d9bf 209a 663d f78d 823e 2fc0 eabf
000001c0: 827e da3c 6b6d a9bf 8825 ddbf 1a46 31bf
000001d0: 7f83 a3bf 03be db3e f28a 05c0 f07b 13be
000001e0: 26b7 b2bf 03e2 e5bf 8a1f 97be 94fc 0ac0
000001f0: eef9 a5bf d5b0 aebf d39f f73e 2921 19c0
00000200: 0f06 213f 558b 97be fab3 2c3f 3681 dabf
00000210: 147b b8bf 7258 04c0 4b5d 393e 8777 8dbf
00000220: 0866 c5bf 3ab7 08c0 be91 8a3e 34d8 063f
00000230: d12a c93e cbac c13e 7aa1 96bf 51e6 32c0
00000240: 4546 f4bf d2f4 a0bf 40fb dcbf 43d6 c1bf
00000250: 3318 15be 200c efbf 2ed1 11c0 845e 7bbf
00000260: 4899 fdbf 2efd 01c0 3fe3 76bf fae4 95bf
00000270: 503e babf 4fc0 583d 7165 013f d26e 0fc0
00000280: 97ef 8dbf 839e 9abc 9668 12c0 a0fb 58be
00000290: 997e edbf 7c04 a73e afb4 92bf cbd4 adbf
000002a0: 6521 1c3f fa10 d5bf 1084 3d3e c391 c1bf
000002b0: 4267 08c0 bfd3 63be 9bf1 bebf 3d26 21c0
000002c0: cca2 28bf d85e 5b3e 1122 1cbf ed10 073e
000002d0: 2caa a1bf 7d37 023f d2b3 30be 2dd9 e9be
000002e0: 52e9 5bbf a18a a8bf f822 e9bf aef8 49bf
000002f0: 6b2b 17c0 7d94 4ebe 7e77 c1bf 1f9e 02c0
00000300: 7e7b 84bf 93e5 55bf a50e ebbd e42f c6bf
00000310: 4a22 00c0 51fb fdbf a260 d1bf 3628 c5bf
00000320: bd61 fbbf 9afb e8bf fa69 aebf ec70 f5bf
00000330: 3771 c1bf 1815 033f 0a7b 1bbf a08c 2ec0
00000340: 9813 9fbf f2a5 8bbf 3e52 a8bf e077 c5be
00000350: 6bbe 8b3e d2b3 e7bf 1251 963e a09a 36be
00000360: 8c08 cdbf 6d50 d2bf 6262 05bf baf0 213e
00000370: 8076 11bd e9cf 023f afe3 8dbf 012f 20c0
00000380: abe5 c7bf 7c60 cebf 7820 08bf 278b 84bf
00000390: f966 48be 5034 ea3e 98fe edbe 3105 3ebf
000003a0: 2b90 02c0 236b a4be a28e 79bf d23f f83e
000003b0: 2920 a3bf c47a c73e 5398 d9bf 8251 d3bf
000003c0: d2d1 07c0 f8d0 9cbf 3fb4 1cc0 9151 9bbf
000003d0: 552b b03d afef cdbf 3479 0cc0 d7e1 c1bf
000003e0: de9a 08c0 6476 90c0 17f2 a8be 9acf 32bf
000003f0: a63b e2bf 8662 19c0 fd40 00c0 ac8c 49c0

layers.1.bias_mu f4 [16]
-0.5379066 0.58008736 -0.21681616 -0.32287675 -0.20710395 -0.26865903 -0.22314934 -0.57851386
-0.40321386 -0.4413687 -0.44414708 -0.6879094 -0.28310424 -0.16893788 -0.5577286 0.17222676
00000000: 3fb4 09bf 9b80 143f 0e05 5ebe 1a50 a5be
00000010: 0f13 54be ad8d 89be 4381 64be 7c19 14bf
00000020: 0c72 cebe 14fb e1be 3f67 e3be d51a 30bf
00000030: 0af3 90be 0dfe 2cbe 4dc7 0ebf 365c 303e

layers.1.bias_rho f4 [16]
-4.6354723 -5.118613 -3.544177 -3.1228979 -2.971498 -2.288017 -3.1945906 -2.887395
-2.957545 -2.7669532 -2.505492 -2.4241114 -3.017095 -3.1189084 -2.4449203 -5.022876
00000000: ca55 94c0 adcb a3c0 ccd3 62c0 8fdd 47c0
00000010: 062d 3ec0 df6e 12c0 2c74 4cc0 14cb 38c0
00000020: 6b48 3dc0 c315 31c0 fb59 20c0 a424 1bc0
00000030: 1618 41c0 329c 47c0 9379 1cc0 66bb a0c0

layers.2.weight_mu f4 [16, 16]
0.03317316 -0.5893559 1.1321588 0.7679152 -0.08764759 0.1533433 -0.46065715 -0.027041519
0.5118108 -0.6699984 -0.45919216 0.5326252 -0.65680027 -0.5290963 -0.61356676 -0.2541106
0.5384622 -0.4270635 0.3113444 0.76322526 -0.8516197 0.2856081 -0.429916 0.34916386
-0.48103207 0.61332405 -0.9715417 0.122610636 -0.57109 -0.37485206 0.113976635 0.3330264
0.24317046 -0.4114548 -0.179542 -0.70249766 -0.57507837 0.3979871 0.3322063 0.043253645
0.27378786 0.25745824 -0.42806017 0.13004565 0.19837447 0.008673901 -0.56314886 -1.0391762
-0.3164982 -0.44458655 -0.16097976 0.3162005 0.47598088 -0.19474564 -0.035849907 0.9313302
0.032121785 0.2622014 -0.36729652 -0.4018775 0.5285165 -0.49390045 -0.990037 -0.20458761
-0.37919167 0.26050505 0.30340034 -0.76632655 -1.082729 0.38481405 -0.23639704 -0.41092402
-0.5319177 -0.766416 -0.11410953 0.36428756 0.43293244 -0.36364612 -0.31322402 -1.55803
-1.09486 0.49213433 0.33398592 0.21178909 0.3473523 -0.9316841 0.50609976 -0.26992
-1.0910786 0.3498955 0.65499467 0.31148463 -0.5249123 -0.23135008 -0.69482315 -0.3014518
-0.43825594 0.40868896 -0.42245606 0.52762896 -1.0126156 -0.40949613 0.50918263 -0.3797456
0.29886806 -0.7720393 -0.4504773 -0.5952925 -0.7589795 0.59995687 -0.81474036 -0.31812492
-1.1047175 -1.0428096 -0.429668 -0.34929487 -0.30754662 -0.049862903 0.71087354 -0.012858006
0.47695526 -0.42853227 -0.41975677 0.74743617 0.21470365 0.52162224 -0.3762364 0.44227216
1.0545968 1.1991131 0.21624206 -0.196285 0.22649342 0.7827482 0.41291216 -0.44655204
0.1882811 -0.08499957 0.56997514 0.30792886 0.28443706 0.6737267 -0.44000864 1.006151
-0.5032782 -0.47782943 0.8777598 -0.20728478 0.8363907 0.5563969 0.13959156 -0.71486
0.69492054 0.59872425 -0.3794014 0.48607174 0.3358598 -0.34936777 0.02728874 -0.07256021
-0.5946367 -0.5438015 0.037003953 0.29414928 -0.4658083 0.26794896 -0.39843857 0.27809972
-1.122457 -0.70345426 0.5386307 0.6682197 0.45455846 0.33793855 -0.69056153 -0.029924324
-0.4981476 -0.49134728 -0.3530312 -0.48446518 -0.44439286 -0.49981034 0.16113678 -0.4242561
-0.21607405 -0.74143994 0.8122601 0.14003165 0.34824008 -0.14016362 1.0499762 -0.68943036
-0.6026996 0.4837145 -0.35206333 -0.6221402 -0.3169963 0.11988452 0.55852205 -0.3208077
-0.9380163 -0.7620055 0.015299364 0.21592288 -0.31900305 -0.45963323 0.22443368 -0.21935838
0.34660277 0.033008937 -0.90573907 -0.35171232 -0.3828809 0.5110178 0.98572755 0.2179349
-0.52424854 0.49935117 0.30608222 0.49159193 -0.4802037 0.036745314 0.565671 -0.42322078
-0.1798077 0.38829952 -0.3276584 0.273905 0.6836796 -0.88028955 0.15294577 -0.6092332
-0.74321556 -0.056414083 0.15216869 -0.61110324 0.41941836 -0.6333922 -0.66166055 -0.44371325
0.14312871 0.71574277 0.6330707 0.6165822 1.2011586 -0.3288146 0.34513617 -0.4240959
-0.33462313 0.6721881 0.61846125 0.61783916 -0.5429972 -0.5667258 -0.28562143 -0.7033242
00000000: 94e0 073d 07e0 16bf 94ea 903f 1796 443f
00000010: 9480 b3bd 0706 1d3e 41db ebbe 2d86 ddbc
00000020: 0806 033f 0485 2bbf 3c1b ebbe 205a 083f
00000030: 1024 28bf db72 07bf b612 1dbf c91a 82be
00000040: a9d8 093f 11a8 dabe 8868 9f3e bb62 433f
00000050: c003 5abf 3a3b 923e f31d dcbe 9bc5 b23e
00000060: d649 f6be ce02 1d3f f5b6 78bf 491b fb3d
00000070: f432 12bf 9cec bfbe 956c e93d 7082 aa3e
00000080: ad01 793e 34aa d2be dcd9 37be e3d6 33bf
00000090: 5638 13bf f7c4 cb3e f216 aa3e bc2a 313d
000000a0: ec2d 8c3e 91d1 833e b42a dbbe b02a 053e
000000b0: ad22 4b3e fa1c 0e3c 862a 10bf ba03 85bf
000000c0: 0d0c a2be d9a0 e3be e1d7 24be 08e5 a13e
000000d0: c4b3 f33e 676b 47be 5ad7 12bd a86b 6e3f
000000e0: 2292 033d 433f 863e 4a0e bcbe e3c2 cdbe
000000f0: db4c 073f 85e0 fcbe 1173 7dbf 6a7f 51be
00000100: 6925 c2be eb60 853e 4a57 9b3e fa2d 44bf
00000110: dd96 8abf 5906 c53e 1112 72be a264 d2be
00000120: c22b 08bf d733 44bf 42b2 e9bd e683 ba3e
00000130: 52a9 dd3e d32f babe e65e a0be 876d c7bf
00000140: 5f24 8cbf 08f9 fb3e 3400 ab3e 3ddf 583e
00000150: 29d8 b13e d982 6ebf c18f 013f f432 8abe
00000160: 77a8 8bbf 8125 b33e bbad 273f ea7a 9f3e
00000170: a760 06bf 09e7 6cbe eedf 31bf e457 9abe
00000180: 1563 e0be ae3f d13e 294c d8be b112 073f
00000190: 639d 81bf 7aa9 d1be cb59 023f 046e c2be
000001a0: 3c05 993e 5ea4 45bf f6a4 e6be 1765 18bf
000001b0: 7b4c 42bf c696 193f d392 50bf 45e1 a2be
000001c0: 6267 8dbf c97a 85bf 72fd dbbe c7d6 b2be
000001d0: c076 9dbe 0b3d 4cbd cffb 353f 63aa 52bc
000001e0: 7b33 f43e 9568 dbbe 5cea d6be fa57 3f3f
000001f0: 46db 5b3e 0989 053f 0fa2 c0be 7f71 e23e
00000200: 07fd 863f 8a7c 993f 8f6e 5d3e effe 48be
00000210: e4ed 673e 3062 483f 3969 d33e 78a2 e4be
00000220: c3cc 403e 4114 aebd e4e9 113f daa8 9d3e
00000230: bca1 913e 5a79 2c3f d048 e1be 8ec9 803f
00000240: d7d6 00bf 0fa6 f4be deb4 603f 7642 54be
00000250: b31d 563f 0770 0e3f 17f1 0e3e 1101 37bf
00000260: 50e6 313f fe45 193f e640 c2be 65de f83e
00000270: d1f5 ab3e 55e0 b2be a38c df3c 739a 94bd
00000280: 1c3a 18bf 9336 0bbf 7591 173d bc9a 963e
00000290: 6d7e eebe 9b30 893e 2400 ccbe 1663 8e3e
000002a0: acac 8fbf 9415 34bf b4e3 093f 7210 2b3f
000002b0: e3bb e83e 4806 ad3e a4c8 30bf db23 f5bc
000002c0: 340d ffbe df91 fbbe 81c0 b4be d20b f8be
000002d0: 7687 e3be 24e7 ffbe 0a01 253e 1838 d9be
000002e0: 8442 5dbe 02cf 3dbf 47f0 4f3f 7564 0f3e
000002f0: 864c b23e 0d87 0fbe 9f65 863f 827e 30bf
00000300: 854a 1abf 6da9 f73e a541 b4be 9544 1fbf
00000310: 574d a2be 0486 f53d 4dfb 0e3f e840 a4be
00000320: d621 70bf cb12 43bf 2faa 7a3c e31a 5d3e
00000330: 5e54 a3be 0c55 ebbe f1d1 653e 7c9f 60be
00000340: eb75 b13e 6134 073d 84de 67bf a313 b4be
00000350: f708 c4be 10d2 023f a458 7c3f 542a 5f3e
00000360: 2735 06bf f5aa ff3e cfb6 9c3e f0b1 fb3e
00000370: 42dd f5be 4182 163d d1cf 103f 65b0 d8be
00000380: 821f 38be 32cf c63e d8c2 a7be 473d 8c3e
00000390: a005 2f3f a85a 61bf d19d 1c3e b5f6 1bbf
000003a0: 6043 3ebf 7412 67bd 1cd2 1b3e 4371 1cbf
000003b0: 01be d63e fe25 22bf 9662 29bf 622e e3be
000003c0: 5590 123e eb3a 373f ec10 223f 55d8 1d3f
000003d0: 91bf 993f 635a a8be b0b5 b03e 1923 d9be
000003e0: b953 abbe 8514 2c3f 7a53 1e3f b52a 1e3f
000003f0: dd01 0bbf f114 11bf f93c 92be 0e0d 34bf

layers.2.weight_rho f4 [16, 16]
-1.6067631 -1.156943 -0.15039594 0.5461969 -0.65136045 0.40879056 -1.475333 -0.82839197
-1.3768972 -1.1954001 0.4641408 0.43067414 -0.89376664 -1.2177795 0.030483097 0.42943195
-1.4150112 -1.2634175 0.3867456 -0.9587158 0.34921905 -0.017205037 -0.2980707 -1.322076
0.4052091 0.5549484 -1.7184945 -2.270991 -1.4009446 -1.2053915 -0.33675718 -0.15434556
0.5025944 -2.2658374 0.3388638 -1.0120833 -0.2347833 -1.4648585 -2.2622948 0.6218889
0.5434224 0.5910604 -1.5040436 -2.2320795 -0.76855224 0.33120808 -1.0722414 -0.29309955
-2.1196675 -1.6705065 -2.2278116 -1.6122127 -1.7698704 -1.201015 -1.0286735 0.331566
-0.9175601 -1.6625814 -2.1563106 -2.0629394 -2.3181894 -1.7242556 -1.977342 -1.3719728
-2.3715248 -1.792745 0.48110828 -0.72572505 -1.1110033 -1.5163025 -1.4307097 -1.7332124
-1.5234605 0.17899539 -1.1532933 -2.0244174 0.5868413 -1.5679564 -2.0526805 -0.39256227
-0.51043594 -2.0968084 -0.17339712 -1.5391266 -1.3402549 -0.1788911 -1.3200281 -1.8669784
0.2658124 0.722135 -1.7844561 -1.8342091 -1.9181576 0.24984923 -0.2760641 -0.7535353
0.123584285 -2.2996924 -1.189431 -1.5145149 -0.0036240874 -1.4250026 -1.4391059 -2.1605363
-1.7065115 -1.579662 -1.5261217 -1.6173834 -1.4231676 -1.0046694 0.31493372 -1.698956
-3.0051458 -3.0633426 -1.7383238 -2.08114 -1.9086384 0.30606243 0.012607744 0.57389873
-2.261895 -2.2273347 -1.9445931 -1.4250879 -2.8405547 -1.2679783 -2.207447 0.09186102
-0.036916927 -4.7471085 0.42852217 0.6406941 -2.252885 -1.0009328 -2.631014 -2.5361254
-2.473847 0.60153663 -2.2713766 -2.1608534 -2.0170457 -3.077326 -2.1195219 -3.9556265
-1.8779907 -1.8322265 -0.78680193 0.124191284 -1.5529206 -1.8993219 -1.5938364 0.2669465
-1.446052 -1.8448684 0.49047524 -1.8810216 -1.8854271 -1.9935831 -2.4109266 0.4372466
-1.146741 -2.1230125 -1.3191044 -1.4903667 -1.2672079 0.44113508 0.08422896 -1.7511189
-0.5835347 -0.9913437 -1.8006155 -0.6692446 -1.2764723 -1.464248 -0.26893392 -0.13083546
-1.2121822 -1.8533183 -2.1846323 -2.0568497 -1.5128323 0.18827876 0.7045822 -1.7986599
-0.40879864 0.22753753 -1.5443238 0.64269465 -2.3801143 -0.021943448 -1.3995343 -0.077962756
-1.3518528 -1.9005407 -2.3562467 -0.6880205 -0.5587794 -0.46883002 0.35469633 0.102177836
-2.0248337 -1.3912771 0.58027613 -0.70991296 -1.8539973 -1.595804 -0.8584717 0.4268911
-0.8053684 -1.672383 -0.03244294 -1.7317684 -2.1216042 -1.7409871 0.18581614 0.7021616
0.20972405 -1.7025018 -1.964238 -1.219617 -1.5303398 -0.76806676 0.33206156 -1.5313256
0.48786834 -1.7969849 0.18138155 0.50212455 -1.4809833 -1.0722567 0.28271952 -2.0573196
0.41998637 0.64898753 -0.4022408 -1.2951776 -1.0368752 -1.5371445 -0.5745992 -1.2917207
0.44307074 -1.9665842 0.13831273 0.05653465 -0.18373369 -1.5145847 0.512182 -1.8091145
-2.0441031 -1.3468578 -1.4024141 0.50183904 -0.9263186 -2.13374 0.4679061 -0.9121164
00000000: 6aaa cdbf b516 94bf 6501 1abe 8fd3 0b3f
00000010: 8fbf 26bf ff4c d13e b6d7 bcbf 7f11 54bf
00000020: 2b3e b0bf df02 99bf dda3 ed3e 5281 dc3e
00000030: e4cd 64bf 33e0 9bbf b0b7 f93c 81de db3e
00000040: 161f b5bf aab7 a1bf 8503 c63e 666e 75bf
00000050: d7cc b23e 94f1 8cbc b99c 98be c939 a9bf
00000060: 9177 cf3e 1911 0e3f a1f7 dbbf eb57 11c0
00000070: 2752 b3bf 454a 9abf 706b acbe c30c 1ebe
00000080: 07aa 003f 7b03 11c0 8e7f ad3e f28b 81bf
00000090: 096b 70be 7c80 bbbf 70c9 10c0 1c34 1f3f
000000a0: bb1d 0b3f bc4f 173f 8084 c0bf 64da 0ec0
000000b0: d7bf 44bf 1b94 a93e 353f 89bf 2511 96be
000000c0: a2a8 07c0 28d3 d5bf 7794 0ec0 fc5c cebf
000000d0: 1d8b e2bf dcba 99bf 93ab 83bf 05c3 a93e
000000e0: 38e5 6abf 78cf d4bf fe00 0ac0 3307 04c0
000000f0: 375d 14c0 68b4 dcbf 8b19 fdbf ce9c afbf
00000100: 10c7 17c0 ab78 e5bf d353 f63e 1ec9 39bf
00000110: 5b35 8ebf 3316 c2bf 7f21 b7bf e7d9 ddbf
00000120: c100 c3bf 914a 373e 1d9f 93bf 0e90 01c0
00000130: 3b3b 163f ccb2 c8bf 1e5f 03c0 ecfd c8be
00000140: eeab 02bf 1c32 06c0 048f 31be 1a02 c5bf
00000150: 798d abbf 3b2f 37be aef6 a8bf 26f9 eebf
00000160: 9018 883e d7dd 383f 0f69 e4bf 5dc7 eabf
00000170: 3086 f5bf 7ad8 7f3e 4658 8dbe b0e7 40bf
00000180: c219 fd3d 292e 13c0 463f 98bf a0db c1bf
00000190: 1982 6dbb 7c66 b6bf 9f34 b8bf 3a46 0ac0
000001a0: f86e dabf 5d32 cabf f557 c3bf 6b06 cfbf
000001b0: 5b2a b6bf 0299 80bf fe3e a13e 6477 d9bf
000001c0: 4f54 40c0 ce0d 44c0 6581 debf 6631 05c0
000001d0: 434e f4bf 37b4 9c3e b690 4e3c 07eb 123f
000001e0: e3c2 10c0 a78c 0ec0 6de8 f8bf 4869 b6bf
000001f0: a6cb 35c0 1d4d a2bf d046 0dc0 a121 bc3d
00000200: 3436 17bd 50e8 97c0 4267 db3e 8704 243f
00000210: 452f 10c0 911e 80bf 8962 28c0 e14f 22c0
00000220: 8253 1ec0 4efe 193f 3c5e 11c0 6c4b 0ac0
00000230: 4717 01c0 e9f2 44c0 3fa6 07c0 fc28 7dc0
00000240: 0062 f0bf 6686 eabf da6b 49bf 0058 fe3d
00000250: 1ac6 c6bf fb1c f3bf d502 ccbf 36ad 883e
00000260: 3b18 b9bf a624 ecbf 921f fb3e 51c5 f0bf
00000270: ad55 f1bf bb2d ffbf 9f4c 1ac0 c9de df3e
00000280: 69c8 92bf 70df 07c0 6ad8 a8bf 56c4 bebf
00000290: de33 a2bf 75dc e13e 3c80 ac3d aa24 e0bf
000002a0: 8862 15bf b3c8 7dbf 927a e6bf 9d53 2bbf
000002b0: 7263 a3bf 7a6c bbbf b5b1 89be bbf9 05be
000002c0: c928 9bbf 8939 edbf 04d1 0bc0 6da3 03c0
000002d0: 7da4 c1bf 26cc 403e 805f 343f 7d3a e6bf
000002e0: 0e4e d1be 99ff 683e 67ac c5bf a387 243f
000002f0: cb53 18c0 bfc2 b3bc f123 b3bf f0aa 9fbd
00000300: 8309 adbf eb44 f3bf bfcc 16c0 1d22 30bf
00000310: 2b0c 0fbf 7d0a f0be c29a b53e 9d42 d13d
00000320: e096 01c0 5e15 b2bf fa8c 143f dbbc 35bf
00000330: c94f edbf 4e43 ccbf cdc4 5bbf 7891 da3e
00000340: a02c 4ebf a510 d6bf e3e2 04bd 96aa ddbf
00000350: 5dc8 07c0 aad8 debf 9646 3e3e ddc0 333f
00000360: e7c1 563e 94eb d9bf 276c fbbf 691c 9cbf
00000370: 2de2 c3bf 06a0 44bf f903 aa3e 7a02 c4bf
00000380: e1c9 f93e 9a03 e6bf 16bc 393e 3c8b 003f
00000390: dc90 bdbf b53f 89bf 9dc0 903e 20ab 03c0
000003a0: 7408 d73e 0c24 263f 82f2 cdbe 61c8 a5bf
000003b0: 54b8 84bf 27c1 c4bf ef18 13bf 1b57 a5bf
000003c0: 2bda e23e 08b9 fbbf daa1 0d3e e190 673d
000003d0: af24 3cbe e9dd c1bf 5c1e 033f 1091 e7bf
000003e0: 96d2 02c0 d665 acbf 4e82 b3bf 8678 003f
000003f0: 3723 6dbf 328f 08c0 6391 ef3e 7680 69bf

layers.2.bias_mu f4 [16]
-0.35976392 -0.33248514 -0.4822861 -0.1682345 -0.45580158 -0.47943887 -0.3348871 0.3141308
-0.5628763 -0.22336824 -0.19403118 -0.2996179 -0.55493844 -0.4232785 -0.4909482 -0.5049108
00000000: fa32 b8be 7e3b aabe 34ee f6be aa45 2cbe
00000010: d35e e9be 0379 f5be 5276 abbe c1d5 a03e
00000020: a918 10bf a5ba 64be 1cb0 46be 8467 99be
00000030: 7210 0ebf f6b7 d8be 905d fbbe d641 01bf

layers.2.bias_rho f4 [16]
-2.5104713 -2.2390208 -2.6406524 -3.2679167 -2.1811411 -2.448778 -2.6371121 -5.203666
-5.0166116 -2.5610075 -2.8056133 -2.264289 -1.777002 -2.8430789 -2.8850968 -2.6671402
00000000: 90ab 20c0 1e4c 0fc0 7300 29c0 8c25 51c0
00000010: d197 0bc0 c7b8 1cc0 72c6 28c0 6f84 a6c0
00000020: 1588 a0c0 8ce7 23c0 2b8f 33c0 1cea 10c0
00000030: cd74 e3bf 01f5 35c0 6da5 38c0 6db2 2ac0

layers.3.weight_mu f4 [1, 16]
0.4698106 0.31959155 0.32469627 0.29376212 -0.30887875 -0.32752156 -0.3503497 -1.0851363
-1.1846374 0.35870013 -0.3204004 -0.7339194 -0.17543705 -0.38697436 0.23224054 -0.31948373
00000000: 048b f03e 81a1 a33e 973e a63e fd67 963e
00000010: 5b25 9ebe e8b0 a7be 0961 b3be bfe5 8abf
00000020: 33a2 97bf 8ba7 b73e 850b a4be 24e2 3bbf
00000030: c5a5 33be 8121 c6be 77d0 6d3e 5f93 a3be

layers.3.weight_rho f4 [1, 16]
-1.1797843 -2.5971272 -2.7123125 -2.2111933 -2.6455243 -2.7806654 -2.3084357 -3.8589697
-4.7076716 -2.607208 -1.7875537 -1.8176228 -2.613381 -2.0400403 -2.3598042 -2.4748983
00000000: 2c03 97bf 5537 26c0 8796 2dc0 3184 0dc0
00000010: 4550 29c0 6cf6 31c0 69bd 13c0 5cf9 76c0
00000020: 3fa5 96c0 7fdc 26c0 8fce e4bf dda7 e8bf
00000030: a241 27c0 0590 02c0 0807 17c0 bc64 1ec0
