Pokemon/Model.pth (torch_old, 358796 bytes, 12 tensors)

layers.0.weight_mu f4 [200, 3]
000000 c5 36 8b 3b d0 6c a2 3c 9e 81 56 bb 50 92 6f be
       0.0042484724 0.019827276 -0.0032731066 -0.23395658
000010 5d a8 28 3d 7d 2a b8 3e 6d 17 9c bc c8 9f 5b bc
       0.04117619 0.35969916 -0.019054139 -0.013404794
000020 36 a6 63 3c de b8 8d 3c 7a 23 55 3b 27 b6 81 3b
       0.013894608 0.017300066 0.0032522366 0.003958482
000030 a8 0b da bc 62 9b 09 3f 39 73 c4 bc 61 3a fd bb
       -0.026616886 0.5375272 -0.023980724 -0.0077279066
000040 f3 ce 84 3b 48 89 41 3c 8d 1c 08 3c 49 61 8e 3c
       0.0040529906 0.011812516 0.008307588 0.017380374
000050 d7 b9 ca bc 98 58 6b bf b4 5d 6a bb e1 fc 81 3f
       -0.024746818 -0.9193206 -0.0035761418 1.0155298
000060 7a 13 31 bd 83 c9 d7 bc b5 56 2d bd 99 a1 6b bc
       -0.043231465 -0.026341205 -0.04231902 -0.01438179
000070 b9 3e 83 3f ef 16 66 3e 01 a0 95 bb 16 14 80 3b
       1.0253516 0.22469686 -0.004566193 0.0039086444
000080 f5 cc 94 bc b1 a1 9f bb 65 6d 86 bd 34 2b 0d bd
       -0.018164137 -0.00487157 -0.06563834 -0.03446503
000090 33 55 bd bb d5 c6 16 3c bc 11 49 bd 68 b6 cf bc
       -0.005777979 0.009202679 -0.04908918 -0.025355533
0000a0 b0 57 98 bc a2 9a d9 bc c4 d3 e7 3c d1 5f a8 3b
       -0.0185965 -0.026562992 0.02829922 0.0051383753
0000b0 d0 cc 96 3c 61 03 04 3f 4c 74 b2 ba 8c ba 35 be
       0.01840821 0.51567656 -0.0013614981 -0.17746943
0000c0 d1 a1 a9 3c 82 97 07 3d 7b f8 27 3e be 0a 89 bc
       0.020707043 0.033103473 0.16403382 -0.016728755
0000d0 aa a9 d8 bc 0d af c6 3a 8d 40 1e bd b9 c4 b7 3b
       -0.02644809 0.001515837 -0.03863578 0.005608168
0000e0 d5 29 e7 3c 53 ec f5 be 58 51 2c 3f 3e c0 07 3e
       0.02821819 -0.48031864 0.6731162 0.13256928
0000f0 0f 54 b8 be 28 d5 c6 bc 13 03 ee 3e 69 09 30 3c
       -0.36001632 -0.024271563 0.4648672 0.010744431
000100 c4 5c d4 bb 3e c3 3c bc ab ff 04 3f a4 c1 65 3e
       -0.006480785 -0.011521159 0.5195262 0.2243715
000110 fa eb 12 bf de eb 9a 3f 9f 60 69 3d bd 83 8f bc
       -0.5739132 1.2103231 0.05697691 -0.017518872
000120 44 21 97 3c 2f 3c 31 bd 15 87 0b bd 65 df 20 3d
       0.01844848 -0.043270286 -0.03406437 0.039275546
000130 ea 1f f3 3c 7f 5b 58 bb 3e 62 0f bc 09 52 cb 3c
       0.029678304 -0.003301352 -0.00875145 0.02481939
000140 f2 05 14 3d a9 c5 03 3c c9 d8 9f 3a 26 7d aa 3c
       0.036138482 0.008042731 0.0012195344 0.020811629
000150 da df 9c 3a f6 a0 1f bb 3f a2 e3 3c 87 4e ee 3c
       0.0011968568 -0.0024357415 0.027787326 0.02909018
000160 f7 ed 07 bc 05 7a 79 3e 55 d5 3d bc d6 c3 46 bb
       -0.008296481 0.24362953 -0.011586507 -0.003032913
000170 aa ca 92 3c ec de 1d 3c 41 fd c0 3c 5d 63 2b bd
       0.017918903 0.009635668 0.02355826 -0.041842807
000180 8a 91 82 3b 9c 95 c1 3c 7b 67 23 3c 87 4c a3 3c
       0.0039846348 0.02363091 0.009973402 0.019933952
000190 f8 7d 15 be c1 5a aa 3b e0 08 17 bc 04 73 3c bc
       -0.14598835 0.005198807 -0.009218425 -0.011502031
0001a0 6a 98 b0 bb 39 ba 12 bc 2c 99 a1 3a 31 8d 1d 3c
       -0.005389263 -0.008955532 0.0012328974 0.009616182
0001b0 ad d4 17 3c 71 8a b6 bc 00 69 66 3c ef d5 cf bc
       0.009267014 -0.02228281 0.01406312 -0.025370566
0001c0 89 6f 35 bd c2 65 f9 bd 2c 85 0c bf d5 b3 0d 3d
       -0.04429582 -0.12177612 -0.54890704 0.03459533
0001d0 8f c2 24 3f 91 33 76 3b 86 8c 29 ba 56 0b 05 3c
       0.6435937 0.0037567357 -0.0006467778 0.0081203785
0001e0 f6 7d 75 bb 51 ca 04 bc 20 d7 ba 3c b8 74 bb 3c
       -0.0037459112 -0.008104877 0.022807658 0.022882804
0001f0 68 15 49 3c 7b c3 81 3c e8 38 c3 3b b7 44 3e bd
       0.01227317 0.015840283 0.0059577115 -0.04645225
000200 b5 ac 3b bd 2f 46 d5 ba ac c6 00 bd 0b 1b ec bc
       -0.045819003 -0.0016271527 -0.03143947 -0.028821489
000210 a6 12 0e bd 13 6b 67 be 56 a1 e0 3e d5 23 1c bd
       -0.034685753 -0.2259944 0.4387309 -0.03812011
000220 03 f5 4d 3b ed 20 9b 3c 1d 4c 0c bc e5 b3 39 3d
       0.0031426556 0.018936599 -0.008563069 0.045337576
000230 6f b4 66 3c 3a b7 55 3b b8 0e a7 bb 63 cf 17 bd
       0.014081105 0.0032610432 -0.00509819 -0.037063014
000240 21 08 58 3c b1 9e 19 bc 99 79 9c 3c a4 98 cb 3b
       0.013185532 -0.009376214 0.019100951 0.0062132645
000250 42 16 d7 bb ce 9a f3 bb a7 2b df ba e9 91 a6 3c
       -0.0065639326 -0.0074342256 -0.0017026559 0.020333247
000260 ec 18 05 bd a8 38 68 3d 18 54 51 bd c1 32 20 3d
       -0.03249447 0.056694657 -0.05110559 0.039110903
000270 78 84 01 3c 84 95 06 bd 80 48 7a bc 56 4a 09 3c
       0.007905118 -0.032857433 -0.015276074 0.0083795395
000280 de c4 f2 bb dd 04 1b bc 9a 4a 00 bd ca 0a c2 bc
       -0.0074087223 -0.009461609 -0.031321146 -0.023686785
000290 e7 f0 1f 3b bd aa e1 3b b9 67 fa bc 08 39 8c bb
       0.0024405064 0.0068868087 -0.030567037 -0.0042792596
0002a0 b5 8f 82 38 d7 e0 31 bd 1a 32 e0 3b 91 ab 75 bc
       6.2256506e-05 -0.043427315 0.00684191 -0.014994518
0002b0 70 b3 3d 3c 09 01 ce ba 57 a8 4b bc e6 8d 03 bb
       0.011578426 -0.0015716861 -0.012430272 -0.0020073592
0002c0 58 4b 29 bc 4a d3 2c bd 9b ce 43 bf ed 95 e0 bb
       -0.010332905 -0.04219369 -0.7648713 -0.00685381
0002d0 e8 be 71 3e 7f 93 f9 bb 95 60 3d 3e 68 78 70 3c
       0.23607981 -0.00761646 0.18493874 0.014677145
0002e0 1c 5e 9c 3c 9e b1 11 3c d0 d9 fd 3d 3c 22 94 b9
       0.019087844 0.008892445 0.1239506 -0.00028254266
0002f0 93 29 55 bc 6d bd 1a bd 2d 95 92 bc fb 4a b6 3c
       -0.0130104 -0.037778307 -0.017893398 0.02225255
000300 e9 57 e1 bc 10 f0 fe bc 2a 05 b0 3c 54 7a 9e bc
       -0.02750774 -0.03112033 0.021486837 -0.01934544
000310 06 c8 a0 3c 7c bb 6a 3a e6 96 f4 bc 60 c3 d1 3c
       0.019626629 0.0008954329 -0.02985711 0.025605857
000320 8f 46 51 bc 8d 69 e4 3b 82 7d 96 3c 99 aa 3e 39
       -0.01277317 0.0069705904 0.018370394 0.00018183365
000330 a4 53 06 3d af e7 ef bc cb 71 01 bc 6f e1 70 bc
       0.03279461 -0.02928528 -0.0079006655 -0.014702185
000340 62 ec f7 b9 5e b4 af 3c e3 91 14 3f ce 1b 59 bc
       -0.0004728763 0.02144831 0.58035105 -0.013251258
000350 d1 26 9c be 83 1c b5 3d 37 dd b7 3c c6 91 06 bf
       -0.30498365 0.08843329 0.02244435 -0.5256618
000360 9e 09 af bb f0 1b 8c 3e 5d 52 c8 38 9e 4c cd 3a
       -0.0053417226 0.27365065 9.5520845e-05 0.0015663092
000370 f2 37 04 bc 82 b6 b1 3c bf cf 51 bc 1d 8f 78 3b
       -0.008069979 0.021693472 -0.012805878 0.00379271
000380 62 23 61 3c 10 3a ab 3b e2 9d 3e 3c af b5 2c bc
       0.013741346 0.0052254274 0.011634322 -0.010541364
000390 0d d0 56 bc 13 12 07 bc 1d 4e f9 bb 80 14 a2 bb
       -0.013111127 -0.008244055 -0.007608189 -0.0049462914
0003a0 40 d3 9a bc 12 4a 9f bb 77 17 66 3c 20 78 13 3c
       -0.01889956 -0.004861125 0.01404368 0.009000808
0003b0 98 e5 12 3b 7b ae 45 bc 80 22 d6 3b 46 e6 06 bd
       0.002241468 -0.012065525 0.0065348744 -0.03293445
0003c0 a8 9e 3f bc b1 f7 22 bc 31 d8 05 bd b3 47 9e bc
       -0.011695541 -0.00994675 -0.03267688 -0.019321298
0003d0 5d 55 ee 3b 4a 9b 49 ba 9a d6 ef bc 4e 24 51 bc
       0.0072733597 -0.00076906814 -0.029277135 -0.012765003
0003e0 89 10 97 3c f6 72 c1 3c ca 69 61 3c c4 89 9d ba
       0.018440502 0.023614388 0.013758132 -0.0012019207
0003f0 d7 4e 23 bf d0 62 ef 3b 5b 22 8a 3f 61 1f 24 bc
       -0.63792175 0.0073054805 1.0791734 -0.010017247

layers.0.weight_rho f4 [200, 3]
000000 f5 c3 42 c0 97 42 42 c0 c2 66 43 c0 85 05 40 c0
       -3.0432103 -3.0353143 -3.0531468 -3.000337
000010 ea e1 42 c0 3f 3d 3f c0 29 01 43 c0 1b d2 3f c0
       -3.0450387 -2.9881132 -3.0469458 -2.9971988
000020 b8 ff 42 c0 6c a9 42 c0 9c 8f 42 c0 42 5a 43 c0
       -3.0468578 -3.0415907 -3.0400152 -3.052384
000030 14 c1 42 c0 b1 80 3f c0 27 3b 40 c0 fb 30 43 c0
       -3.0430346 -2.9922297 -3.0036104 -3.0498645
000040 b7 a7 42 c0 2c f0 40 c0 37 3d 43 c0 23 55 42 c0
       -3.0414865 -3.014659 -3.0506113 -3.0364463
000050 6e 53 43 c0 8b 8b 44 c0 63 11 47 c0 f2 f8 41 c0
       -3.0519671 -3.071017 -3.1104362 -3.0308194
000060 c4 ec 42 c0 3e f8 42 c0 56 3d 43 c0 b8 19 46 c0
       -3.045701 -3.0464015 -3.0506186 -3.0953197
000070 fd 7b 41 c0 71 e8 40 c0 d4 b5 42 c0 6f 23 43 c0
       -3.0231926 -3.014187 -3.042348 -3.0490377
000080 dd 1d 43 c0 c7 2d 43 c0 12 69 43 c0 aa 3b 43 c0
       -3.0486977 -3.049669 -3.053288 -3.0505166
000090 1a db 42 c0 11 42 43 c0 74 30 43 c0 d9 5f 43 c0
       -3.044623 -3.0509074 -3.0498323 -3.052725
0000a0 9b a5 43 c0 b8 97 42 c0 d9 f4 42 c0 54 58 43 c0
       -3.0569828 -3.0405102 -3.0461943 -3.0522661
0000b0 af 5f 43 c0 0e b2 3f c0 27 81 43 c0 b5 5e 3f c0
       -3.052715 -2.9952426 -3.0547578 -2.9901555
0000c0 0a 90 43 c0 01 25 42 c0 0c f3 3e c0 64 c1 43 c0
       -3.0556664 -3.0335085 -2.9835844 -3.0586786
0000d0 5d 74 43 c0 46 df 42 c0 3d be 43 c0 01 f9 42 c0
       -3.0539773 -3.0448775 -3.0584862 -3.046448
0000e0 da 87 43 c0 82 c1 40 c0 8e 19 40 c0 83 c4 3f c0
       -3.0551667 -3.0118108 -3.0015597 -2.9963691
0000f0 0a 8f 3f c0 49 82 43 c0 2d 90 3f c0 fc 1c 43 c0
       -2.9931054 -3.054827 -2.9931748 -3.048644
000100 6c 5d 43 c0 70 d6 42 c0 05 fe 3f c0 17 08 40 c0
       -3.052577 -3.0443382 -2.9998791 -3.0004938
000110 02 1f 40 c0 5e 01 42 c0 71 b5 45 c0 2f ac 44 c0
       -3.0018926 -3.0313334 -3.0891993 -3.0730093
000120 b1 bf 40 c0 95 15 43 c0 00 ec 42 c0 da 61 43 c0
       -3.0117 -3.0481923 -3.0456543 -3.0528474
000130 fb cc 42 c0 3d 46 42 c0 41 4f 43 c0 8c 1b 43 c0
       -3.043761 -3.035537 -3.0517123 -3.0485563
000140 a3 93 43 c0 23 19 43 c0 ea 02 43 c0 11 73 43 c0
       -3.055886 -3.0484092 -3.0470529 -3.053898
000150 64 ec 42 c0 78 3f 43 c0 d8 ec 42 c0 63 92 43 c0
       -3.0456781 -3.0507488 -3.0457058 -3.0558097
000160 2b 86 43 c0 1c 32 3f c0 36 e8 3e c0 fa 3f 43 c0
       -3.055064 -2.9874334 -2.982923 -3.0507798
000170 5a 9e 42 c0 96 9b 42 c0 42 5a 43 c0 f2 31 43 c0
       -3.040915 -3.0407462 -3.052384 -3.0499234
000180 bd 35 3f c0 1c a1 41 c0 f1 36 43 c0 5d 0e 43 c0
       -2.987655 -3.0254583 -3.0502284 -3.0477517
000190 83 ad 3e c0 5f f9 3f c0 50 82 43 c0 7f 3a 43 c0
       -2.9793403 -2.9995954 -3.0548286 -3.0504453
0001a0 ce 6d 43 c0 1c 98 43 c0 e8 12 43 c0 14 6d 43 c0
       -3.053577 -3.056159 -3.048029 -3.0535326
0001b0 64 fd 42 c0 83 0e 43 c0 d9 ac 42 c0 f3 c5 42 c0
       -3.0467157 -3.0477607 -3.0417998 -3.0433319
0001c0 9c 8f 43 c0 2f a9 3e c0 6a cb 40 c0 a4 3e 45 c0
       -3.0556402 -2.9790761 -3.0124154 -3.0819483
0001d0 9d 48 40 c0 4c 79 43 c0 85 9d 42 c0 2b 64 43 c0
       -3.004432 -3.0542784 -3.0408642 -3.0529888
0001e0 c3 0d 43 c0 f9 0c 43 c0 d5 aa 41 c0 2d 01 43 c0
       -3.047715 -3.0476668 -3.0260518 -3.0469468
0001f0 b4 6e 43 c0 cd b6 42 c0 3f e8 42 c0 46 fe 41 c0
       -3.0536318 -3.0424073 -3.0454252 -3.0311446
000200 74 fe 42 c0 4d 32 43 c0 a7 bd 42 c0 b1 3e 43 c0
       -3.0467806 -3.049945 -3.0428255 -3.0507014
000210 34 b1 42 c0 a3 0b 41 c0 56 81 3f c0 c2 be 42 c0
       -3.0420656 -3.0163352 -2.992269 -3.042893
000220 b1 44 43 c0 5d 40 43 c0 25 27 43 c0 35 e9 41 c0
       -3.0510676 -3.0508034 -3.0492642 -3.0298588
000230 6b 4e 43 c0 13 8b 42 c0 56 38 43 c0 78 e5 42 c0
       -3.0516613 -3.0397384 -3.0503135 -3.0452557
000240 79 90 43 c0 87 75 43 c0 13 06 43 c0 8d e7 42 c0
       -3.055693 -3.0540483 -3.0472457 -3.0453827
000250 5e 7b 43 c0 dd 5d 43 c0 5e a1 43 c0 cd 42 43 c0
       -3.0544047 -3.052604 -3.056724 -3.0509522
000260 73 65 43 c0 f2 f5 42 c0 00 09 3f c0 d1 78 43 c0
       -3.053067 -3.0462613 -2.9849243 -3.054249
000270 1f 1e 43 c0 d5 47 43 c0 02 03 43 c0 72 ff 42 c0
       -3.0487134 -3.0512593 -3.0470586 -3.0468411
000280 59 eb 42 c0 b9 32 43 c0 23 4d 43 c0 7c 28 43 c0
       -3.0456145 -3.0499709 -3.051583 -3.049346
000290 be de 42 c0 4c 10 43 c0 c3 fc 42 c0 db 1b 43 c0
       -3.044845 -3.0478697 -3.0466774 -3.0485752
0002a0 6f ee 42 c0 37 92 43 c0 be 6d 43 c0 fe 26 43 c0
       -3.0458028 -3.0557992 -3.0535731 -3.049255
0002b0 c5 48 43 c0 73 dd 42 c0 41 71 43 c0 3e 86 41 c0
       -3.0513165 -3.0447662 -3.0537875 -3.0238185
0002c0 6b 56 43 c0 00 97 43 c0 86 a2 3f c0 4d 7b 43 c0
       -3.0521495 -3.0560913 -2.9942946 -3.0544007
0002d0 aa 4e 3f c0 ee 84 43 c0 b6 5d 3f c0 2d 3f 43 c0
       -2.9891763 -3.0549884 -2.9900947 -3.050731
0002e0 63 9f 42 c0 ee d1 42 c0 97 9e 3e c0 73 a2 43 c0
       -3.0409782 -3.044063 -2.9784296 -3.05679
0002f0 d1 41 43 c0 ab 89 42 c0 a4 e4 41 c0 79 31 42 c0
       -3.050892 -3.0396526 -3.02958 -3.0342696
000300 d6 13 43 c0 08 58 43 c0 49 6b 43 c0 a7 b7 43 c0
       -3.0480857 -3.052248 -3.0534232 -3.0580842
000310 a5 2b 43 c0 46 eb 42 c0 0e 48 43 c0 7e 36 42 c0
       -3.0495389 -3.04561 -3.0512729 -3.034576
000320 21 5d 43 c0 11 56 42 c0 6c a1 43 c0 a8 3f 43 c0
       -3.0525591 -3.036503 -3.0567274 -3.0507603
000330 67 00 43 c0 44 37 42 c0 b7 24 43 c0 69 18 43 c0
       -3.0468996 -3.0346231 -3.049116 -3.0483649
000340 cc d9 42 c0 4c 4d 43 c0 1b ba 3f c0 d4 b5 43 c0
       -3.0445433 -3.0515928 -2.995734 -3.057973
000350 b3 05 40 c0 11 7d 3f c0 2f 56 44 c0 92 09 40 c0
       -3.0003479 -2.9920084 -3.0677602 -3.0005841
000360 5f 2e 42 c0 18 08 3f c0 66 99 43 c0 f4 79 43 c0
       -3.0340803 -2.984869 -3.0562377 -3.0543184
000370 51 2b 43 c0 42 9d 43 c0 23 40 42 c0 74 63 43 c0
       -3.0495188 -3.0564733 -3.0351646 -3.0529451
000380 fd 7f 43 c0 70 ee 3f c0 45 96 43 c0 f0 6f 43 c0
       -3.0546868 -2.998928 -3.0560467 -3.0537071
000390 c5 70 43 c0 fe 3f 43 c0 09 20 43 c0 56 3e 41 c0
       -3.053758 -3.0507808 -3.0488303 -3.0194297
0003a0 2e 58 43 c0 33 da 42 c0 d9 13 43 c0 1f 49 42 c0
       -3.052257 -3.0445678 -3.0480864 -3.035713
0003b0 e5 0f 43 c0 34 0b 42 c0 35 d2 42 c0 24 d2 3f c0
       -3.0478451 -3.0319338 -3.04408 -2.997201
0003c0 a4 bd 41 c0 95 37 40 c0 0a 39 43 c0 92 b4 3f c0
       -3.0271997 -3.0033925 -3.0503564 -2.9953961
0003d0 ca 24 3f c0 ff eb 40 c0 3c 6b 43 c0 21 39 43 c0
       -2.9866204 -3.014404 -3.05342 -3.0503619
0003e0 0a 5e 43 c0 ec e2 40 c0 d9 ed 42 c0 bf 20 43 c0
       -3.0526147 -3.0138502 -3.045767 -3.0488737
0003f0 85 fa 41 c0 3c eb 45 c0 bd 96 41 c0 31 55 43 c0
       -3.0309155 -3.0924826 -3.0248253 -3.0520747

layers.0.bias_mu f4 [200]
000000 57 e8 bd 3b 78 08 04 3c 79 2e a8 3a 97 21 91 bc
       0.0057955193 0.00805866 0.0012831233 -0.017716212
000010 de b2 eb bd dd b0 82 3c 13 41 b0 bc 74 df c5 3e
       -0.115087256 0.015953476 -0.021515405 0.38647044
000020 89 76 ad 3c 2c 4d bc be 1a 42 d7 bb 50 e1 3d 3c
       0.021174686 -0.36777627 -0.006569159 0.011589363
000030 b5 27 43 bd e3 ff 06 3d 35 99 dd bc 55 58 5d 3c
       -0.04764529 0.032958876 -0.027050594 0.0135098295
000040 75 2d 07 bc 1d 93 96 bc 9a b9 8c 3a b8 46 fc bc
       -0.008250584 -0.018380696 0.0010736466 -0.03079544
000050 31 1b d0 ba 7d 97 4f bc a3 c9 af 3c 28 2b 2e bf
       -0.0015877244 -0.012670395 0.021458453 -0.680346
000060 10 01 9b 3c 67 97 fb bc 2c 3d 9e 3b da d2 96 b8
       0.018921405 -0.030711843 0.0048290696 -7.1918315e-05
000070 66 cf 4b 3c 98 64 0a 3c d5 ee 62 3c 57 c9 4c bc
       0.012439584 0.008446835 0.013850887 -0.012499175
000080 c6 c0 89 bc 71 bc 89 bb 27 78 25 bd 92 e2 0d 3d
       -0.016815554 -0.004203372 -0.04039779 0.034639902
000090 5c 17 22 bc 5f 5d e9 bb 19 b5 b3 ba 12 fe c5 bc
       -0.009893265 -0.0071217264 -0.0013710588 -0.024169002
0000a0 3c 91 41 3d dc c8 a6 3c ec 7c 6a bc 41 d6 a0 bc
       0.047257647 0.02035945 -0.01431201 -0.019633414
0000b0 6d 3d bf 3c 52 0b 5d bc 2a 43 c2 bc e6 28 32 bc
       0.02334472 -0.0134914685 -0.023713667 -0.010874009
0000c0 1c 2e 39 3c 55 67 2d bb 5a f8 a5 3c 5b ab dd bc
       0.011302497 -0.0026459296 0.020260025 -0.027059248
0000d0 f8 00 f6 bc ce 91 05 3c 5c e0 27 bb c5 e8 bb bb
       -0.030029759 0.008152438 -0.0025615906 -0.0057345354
0000e0 bd 1d 0f bc 2e 00 ea bc 8a 15 23 bc 85 b1 0e 3f
       -0.0087351175 -0.028564539 -0.009953866 0.55739623
0000f0 88 34 89 bc 4b 9d f5 bd ec b5 99 bb 1f 8d 9a 3c
       -0.016748682 -0.11992892 -0.004690876 0.01886612
000100 50 50 03 3b fe 2a f3 ba ab 04 52 bc 2a d2 4f bc
       0.0020036884 -0.0018552241 -0.012818496 -0.012684384
000110 b5 fd 51 bc fc c9 ac 3c 45 62 83 bc fc 4b d4 3e
       -0.012816836 0.021092407 -0.01603807 0.4146422
000120 6d 54 1f bd 67 c0 92 3c c7 41 46 3c 65 09 27 3c
       -0.038898874 0.01791401 0.0121006435 0.010195111
000130 f7 fc 28 bc 22 7e 9d bc 4c 51 2c bb 9b f5 6e 3c
       -0.010314218 -0.019225184 -0.0026293574 0.014584924
000140 a5 a8 bd bc 71 76 c5 b9 9a 8f ea bb de 27 e8 bc
       -0.023151705 -0.00037663014 -0.007158232 -0.028339323
000150 36 99 9c bb 0b 9a fb bc 5d 99 d2 3c fd 58 f0 bc
       -0.0047790064 -0.030713102 0.025707895 -0.029339308
000160 c3 73 7e bc e5 81 1f bc f3 3a 9b bc aa 95 ee 3c
       -0.015530529 -0.009735559 -0.018949008 0.0291241
000170 79 fb c1 bb 86 db e8 3b f0 b4 a5 3b c2 93 65 3e
       -0.0059198705 0.0071062474 0.00505697 0.22419646
000180 f5 f5 a0 3c 40 81 d1 bc 99 7d 2d 3d 35 5c b0 3b
       0.019648531 -0.025574327 0.042356107 0.0053820857
000190 4c 12 ff bc ff fb df 3b c6 bc 2b 3c b4 78 89 3c
       -0.031136654 0.00683546 0.010482019 0.016781189
0001a0 29 f4 48 3d 1d 1f 5d bc 82 ed ac bb 0b 75 6b 3e
       0.049060974 -0.0134961875 -0.0052773366 0.22993867
0001b0 c1 c7 2a 3c 51 d8 2d bd 8d cc e9 bc 88 d3 db 3d
       0.010423602 -0.042442624 -0.02853992 0.10733706
0001c0 cc 64 0e bb f6 d1 29 bb 0c 13 9d 3c 3f 57 34 3c
       -0.002172756 -0.00259125 0.019174121 0.011007129
0001d0 d8 95 2f 3c 93 fd bc ba 39 94 4d bc 45 9d 03 bd
       0.010716878 -0.0014418833 -0.012547546 -0.032132406
0001e0 03 37 d4 3c 01 a6 50 bc 53 93 86 bc 36 c6 22 bc
       0.025905138 -0.012734891 -0.016427672 -0.0099349525
0001f0 9f 31 4f 3e ef 5e 6e 3c ad 7e 8f 3a e5 09 1b 3d
       0.20233773 0.014549001 0.0010947787 0.037851233
000200 d4 dd 47 3b ba 10 30 3e 33 ce dd bc ce f0 f1 be
       0.003049721 0.1719388 -0.027075863 -0.47254032
000210 eb 03 09 bc c6 e4 b5 3c 7a 27 0a bc a6 46 c4 3b
       -0.0083627505 0.022203814 -0.0084322635 0.0059898673
000220 c9 94 ed be b5 3a 0b 3d 41 2f b0 be ab c6 33 bc
       -0.46402577 0.033991534 -0.34411052 -0.010972659
000230 6e 4a 91 3e e2 df be 3d d3 7e 00 bd fb 4e 6c 3c
       0.28377098 0.09320046 -0.03137095 0.014423127
000240 2e 95 82 bc aa 1a cc bc 1f 99 38 3d 9e be 38 ba
       -0.015940275 -0.024915058 0.045067903 -0.0007047447
000250 83 3d c5 ba 7f 21 2e bc e4 5e 56 be be db 99 be
       -0.0015048239 -0.010628103 -0.20934635 -0.30050462
000260 3d 50 0c 3c d7 b8 10 bf 4b 55 01 3d 9e d3 d8 3c
       0.008564052 -0.56532043 0.031575482 0.026468094
000270 94 5c e0 bc 09 26 26 bd b8 20 25 bd 82 61 42 bb
       -0.027387895 -0.040563617 -0.040314406 -0.002966017
000280 1f fc 52 bc 4b b9 d5 bb 52 e4 d5 3c 8f a2 78 3b
       -0.012877493 -0.006522333 0.026109848 0.003793869
000290 a2 8f b3 bc f2 a3 3c bb 80 61 66 3c 15 60 a2 3c
       -0.021919075 -0.0028784242 0.014061332 0.019821206
0002a0 0d c7 17 bd f8 af c4 ba 68 c2 1f 3b c7 ab cc bc
       -0.037055064 -0.0015006056 0.002437735 -0.024984254
0002b0 33 a3 86 bc 7a 8c 73 3c 7b 07 2e bc d7 19 0d bc
       -0.016435241 0.014865035 -0.010621901 -0.008612118
0002c0 3d d6 b9 3b 39 34 e4 3b db e3 a7 bb 70 fe 97 bc
       0.005671291 0.0069642332 -0.005123598 -0.018553942
0002d0 f0 2e 2f 3c 75 28 eb 3c c7 d2 74 bb f3 8d 50 bc
       0.010692343 0.028705815 -0.0037357078 -0.012729156
0002e0 2b 8a f2 3b b7 fd 80 3c ef 99 24 3c a6 5b 7b 3c
       0.007401725 0.01574598 0.010046466 0.015341675
0002f0 65 90 bf 3c 30 e8 83 bc df a9 d3 ba dc 82 33 bc
       0.023384282 -0.016101927 -0.0016148648 -0.010956492
000300 e5 55 8d bc 55 21 43 bc 87 13 6d bd 7f 00 52 bc
       -0.017252872 -0.011909802 -0.05787995 -0.012817501
000310 1c bd a6 bc 8b 95 1d 3d c6 f9 22 bb 87 82 50 bc
       -0.020353846 0.038472693 -0.0024868115 -0.012726433

layers.0.bias_rho f4 [200]
000000 66 b8 41 c0 ae 01 45 c0 71 ba 42 c0 5b c7 43 c0
       -3.0268798 -3.0782275 -3.0426295 -3.0590427
000010 fb 90 42 c0 08 f1 42 c0 aa 53 43 c0 81 ae 48 c0
       -3.040099 -3.0459614 -3.0519814 -3.1356509
000020 69 67 43 c0 ae b3 46 c0 0a 3d 43 c0 de 92 41 c0
       -3.0531867 -3.1047168 -3.0506005 -3.024589
000030 09 bd 3e c0 10 c2 42 c0 8f a5 43 c0 c9 6b 45 c0
       -2.9802878 -3.0430946 -3.05698 -3.0847037
000040 e6 98 43 c0 a9 33 43 c0 7d a1 42 c0 62 ef 42 c0
       -3.0562072 -3.050028 -3.0411065 -3.0458608
000050 8c 66 44 c0 c2 be 41 c0 81 30 41 c0 8e 4a 46 c0
       -3.068759 -3.027268 -3.0185854 -3.0983005
000060 23 8d 43 c0 91 df 42 c0 b5 d3 40 c0 f9 76 43 c0
       -3.0554893 -3.0448954 -3.0129216 -3.0541365
000070 b4 f6 42 c0 39 60 44 c0 23 93 42 c0 13 49 43 c0
       -3.0463076 -3.068373 -3.0402305 -3.051335
000080 b7 f0 41 c0 3d 6e 42 c0 6c 1f 43 c0 e6 7c 40 c0
       -3.030317 -3.0379784 -3.0487928 -3.0076232
000090 2a 34 42 c0 9a 3c 43 c0 12 2a 46 c0 cc 93 42 c0
       -3.0344338 -3.0505738 -3.0963178 -3.0402708
0000a0 ba 8c 3f c0 6f 4b 43 c0 9b 82 40 c0 b3 80 40 c0
       -2.9929643 -3.051479 -3.0079715 -3.0078552
0000b0 2d 5e 45 c0 01 1f 44 c0 19 98 42 c0 38 2d 43 c0
       -3.083873 -3.0643923 -3.0405333 -3.049635
0000c0 fb 23 42 c0 93 6c 43 c0 98 37 42 c0 74 f6 3e c0
       -3.033446 -3.0535018 -3.0346432 -2.9837923
0000d0 75 22 40 c0 c2 8e 43 c0 3a 1c 43 c0 2b fe 42 c0
       -3.002103 -3.0555882 -3.0485978 -3.0467632
0000e0 1b 9a 43 c0 91 b5 42 c0 e2 30 43 c0 02 55 41 c0
       -3.0562809 -3.042332 -3.0498586 -3.0208135
0000f0 d1 50 41 c0 8a b0 3e c0 1f 24 43 c0 11 a6 3f c0
       -3.0205576 -2.979525 -3.0490797 -2.994511
000100 ec 45 43 c0 06 f4 42 c0 02 5d 43 c0 73 fb 42 c0
       -3.0511427 -3.046144 -3.0525517 -3.0465972
000110 40 ba 42 c0 87 8c 42 c0 c4 7a 45 c0 44 c2 41 c0
       -3.0426178 -3.039827 -3.085618 -3.027482
000120 92 f8 43 c0 69 f6 41 c0 38 e0 42 c0 1d 79 42 c0
       -3.0620465 -3.0306647 -3.0449352 -3.0386422
000130 40 a8 42 c0 23 5b 43 c0 73 c3 43 c0 82 c9 42 c0
       -3.0415192 -3.0524375 -3.0588043 -3.043549
000140 7b 06 43 c0 41 d8 43 c0 84 3f 43 c0 c5 80 43 c0
       -3.0472705 -3.060074 -3.0507517 -3.0547345
000150 27 96 48 c0 3a a9 42 c0 5d 95 41 c0 dd cb 40 c0
       -3.1341646 -3.0415788 -3.0247414 -3.0124428
000160 6e ef 43 c0 47 67 42 c0 fb 74 43 c0 b3 a1 43 c0
       -3.0614886 -3.0375535 -3.054015 -3.0567443
000170 86 d7 42 c0 78 52 43 c0 80 c8 43 c0 fa 35 40 c0
       -3.0444045 -3.0519085 -3.0591125 -3.0032945
000180 9d bc 42 c0 84 ae 43 c0 bd 3d 42 c0 18 dc 43 c0
       -3.042762 -3.0575266 -3.0350182 -3.0603085
000190 e9 a7 43 c0 5d 49 43 c0 bb 85 3f c0 fb 0f 43 c0
       -3.0571234 -3.0513527 -2.9925373 -3.0478504
0001a0 9e 7c 43 c0 44 7f 43 c0 e0 61 43 c0 24 b5 3f c0
       -3.054481 -3.0546427 -3.0528488 -2.995431
0001b0 9f 5e 44 c0 70 51 45 c0 e4 fd 42 c0 9b e4 45 c0
       -3.0682752 -3.0830956 -3.0467463 -3.092078
0001c0 37 ca 47 c0 01 87 43 c0 07 9c 42 c0 a6 58 43 c0
       -3.1217172 -3.055115 -3.0407732 -3.0522857
0001d0 0a 7e 43 c0 3a dd 41 c0 a6 27 43 c0 98 e0 42 c0
       -3.0545678 -3.0291276 -3.049295 -3.044958
0001e0 d9 13 42 c0 42 83 42 c0 2f 80 43 c0 d4 f7 44 c0
       -3.0324614 -3.0392613 -3.0546987 -3.0776262
0001f0 29 ec 3f c0 f4 1d 43 c0 5c f9 42 c0 21 e1 42 c0
       -2.998789 -3.0487032 -3.0464697 -3.0449908
000200 56 6c 44 c0 48 2d 47 c0 f5 4e 3e c0 db f1 45 c0
       -3.0691123 -3.1121387 -2.9735692 -3.0928867
000210 c1 8e 44 c0 c9 9a 41 c0 38 e6 43 c0 b7 74 42 c0
       -3.071213 -3.0250723 -3.0609264 -3.0383737
000220 30 b9 46 c0 a1 b9 43 c0 f7 a6 41 c0 63 ff 43 c0
       -3.105053 -3.058205 -3.0258157 -3.0624626
000230 0f d8 44 c0 7c 76 3f c0 2c 32 42 c0 59 53 40 c0
       -3.0756872 -2.9916067 -3.0343122 -3.0050871
000240 d8 d3 41 c0 2e 2d 42 c0 00 e0 42 c0 69 a4 42 c0
       -3.028555 -3.0340075 -3.0449219 -3.0412848
000250 3f 1f 44 c0 11 84 41 c0 75 cf 40 c0 6d 0a 46 c0
       -3.064407 -3.0236857 -3.0126622 -3.0943863
000260 e1 d8 42 c0 3d 9f 45 c0 da 72 43 c0 26 f3 40 c0
       -3.0444872 -3.0878441 -3.053885 -3.0148406
000270 a6 a9 43 c0 2a 7f 43 c0 ad 56 43 c0 16 38 43 c0
       -3.0572295 -3.0546365 -3.0521653 -3.0502982
000280 95 96 42 c0 e2 b1 40 c0 c5 ef 41 c0 9b 4c 43 c0
       -3.0404408 -3.010857 -3.0302594 -3.0515506
000290 a9 57 43 c0 d1 a6 43 c0 e2 be 41 c0 86 2d 42 c0
       -3.0522254 -3.0570567 -3.0272756 -3.0340285
0002a0 29 60 43 c0 69 1a 43 c0 50 0d 44 c0 37 af 42 c0
       -3.0527442 -3.048487 -3.0633125 -3.0419443
0002b0 2d e4 41 c0 fa 54 43 c0 92 4f 43 c0 8f b2 45 c0
       -3.0295517 -3.0520616 -3.0517316 -3.0890234
0002c0 47 f8 40 c0 01 c2 42 c0 66 11 42 c0 15 3d 4e c0
       -3.0151536 -3.043091 -3.032312 -3.2224782
0002d0 93 4b 43 c0 ea 42 43 c0 b5 c3 42 c0 44 66 43 c0
       -3.0514877 -3.050959 -3.043195 -3.0531168
0002e0 e5 48 43 c0 7f 27 44 c0 ea bb 43 c0 df b6 43 c0
       -3.0513241 -3.0649107 -3.0583444 -3.0580366
0002f0 dc 3d 43 c0 df 35 43 c0 de 3b 43 c0 13 e8 42 c0
       -3.0506506 -3.050163 -3.050529 -3.0454147
000300 bd 0a 44 c0 85 92 43 c0 3f 7e 45 c0 b1 d4 42 c0
       -3.0631554 -3.0558178 -3.0858305 -3.0442317
000310 f7 23 42 c0 49 67 43 c0 87 25 44 c0 5b 1f 43 c0
       -3.0334451 -3.053179 -3.0647905 -3.0487888

layers.1.weight_mu f4 [200, 200]
000000 73 ae 59 3c e7 57 47 bb a0 06 be bc 48 38 fd ba
       0.013286221 -0.0030417384 -0.023196518 -0.0019319141
000010 12 4f e6 3c 17 aa d5 bc 4d 4a d9 3c 1f b7 89 bb
       0.028113876 -0.026082082 0.026524687 -0.004202738
000020 75 26 a9 3c ce 58 60 bb 08 a2 1d 3c d2 ee 11 3c
       0.02064822 -0.003423262 0.009621151 0.008907037
000030 3c fe 49 bb 11 1c 63 bb ff ab b0 3d e8 70 19 3c
       -0.0030821702 -0.003465418 0.08626556 0.009365298
000040 80 ee 5e 3c ba 0c cd bb 53 45 0c bc 4a 4e 7d 3b
       0.0136066675 -0.0062576206 -0.00856145 0.00386514
000050 72 e9 c8 ba 6e 48 ec 3b e8 a2 32 bc b3 3a a1 ba
       -0.0015328361 0.0072107827 -0.010903098 -0.0012300819
000060 ab 46 88 bc 1d 28 a1 bc c6 85 de 3c 9f 5a 3a bb
       -0.01663526 -0.019672448 0.027163398 -0.0028435362
000070 7b 01 8c bc 25 37 42 3d d0 4e 75 3c e9 e5 2b 3d
       -0.01709055 0.04741587 0.014972404 0.041967306
000080 84 da 03 3c 9e b4 db ba 72 39 0e bd f1 19 90 bc
       0.008047704 -0.0016762202 -0.034722753 -0.017590495
000090 ed 7a 15 3c da 6d 15 bc c2 f0 35 3c 31 6b 29 3c
       0.009123546 -0.009120429 0.011104764 0.010340498
0000a0 f2 6b d5 3c 1d c7 da 3c 35 d8 d4 b9 8c dd fe 3a
       0.026052449 0.026706273 -0.00040596878 0.0019444688
0000b0 b4 f0 45 3c af 4a f0 3c 47 37 51 3c 6a 8c 5d bc
       0.012081314 0.029332487 0.012769527 -0.013522247
0000c0 75 6d 9c bc 80 c7 ea 39 fc 3f 37 bd 7b a3 da 3c
       -0.019095162 0.00044780597 -0.044738755 0.026689282
0000d0 b1 bd 04 3d b2 a9 32 3c 65 66 84 3b 50 8a 51 bc
       0.032407466 0.010904716 0.0040405267 -0.012789324
0000e0 59 34 08 bd 6f b3 2a bc 55 15 87 3c b9 8f 17 3c
       -0.033253048 -0.010418757 0.016489664 0.009250575
0000f0 ac 3c cf bb b1 79 30 bb 05 e1 af bc ca 86 15 3d
       -0.0063243713 -0.0026928002 -0.021469602 0.036505498
000100 91 69 e1 3c 65 f7 57 3b ed 1f c5 3b 35 fc bb bc
       0.027516158 0.0032953855 0.0060157687 -0.02294741
000110 e2 c7 1c bd c8 ea c3 3c 1f 02 1c bd 14 45 30 3b
       -0.03827656 0.023915663 -0.03808796 0.0026896643
000120 53 94 73 3c e8 cd 1c bb 41 c0 2e bc be 8c 0e bd
       0.014866906 -0.002392644 -0.010665954 -0.03480219
000130 3b 7d 40 3c 89 e2 23 bd 42 f8 1a bc 53 a4 1f bd
       0.011748607 -0.040010963 -0.009458603 -0.03897507
000140 af 96 ca bb 2d e6 99 bb d1 52 8c 3c 0b 93 f1 bc
       -0.0061825137 -0.0046966285 0.017129334 -0.02948906
000150 31 89 e8 ba ad 3e 3b 3d 48 af 1c bc dc 63 19 3b
       -0.0017741082 0.04571407 -0.009563275 0.0023405468
000160 27 34 77 3c b9 7c 82 bc 69 2d 47 bc 83 d9 e8 3b
       0.015088118 -0.015928613 -0.012156823 0.0071060075
000170 3b b0 9f bc 9e a5 91 3c 06 6e fc ba 01 b6 34 bb
       -0.019493213 0.017779168 -0.0019258864 -0.0027574303
000180 92 87 44 3c 7b 23 40 3b 0a 01 81 bb 71 49 a4 bc
       0.011995213 0.0029318023 -0.0039368914 -0.02005455
000190 06 3f f2 bc 45 8e 10 bb 92 ac 2c 39 c9 7d a4 bc
       -0.029571068 -0.0022057455 0.00016467486 -0.02007951
0001a0 e1 2b 82 3c 20 95 ea 3c 5f 71 a9 bc 81 7d a2 bd
       0.015890064 0.028635561 -0.020683942 -0.07934094
0001b0 51 a0 c1 3c 7d 10 ff bc 4f 24 9b bc b3 10 86 3b
       0.023636015 -0.031135792 -0.018938212 0.004091346
0001c0 32 fe 42 3c 88 ca 99 bc b2 c8 a4 bc e7 28 af 3b
       0.011901425 -0.018773332 -0.02011523 0.005345452
0001d0 24 4f 18 3d 51 96 13 3c 91 e8 82 3c 74 af 78 3c
       0.03718485 0.009008006 0.015980037 0.01517855
0001e0 a1 44 08 bc 68 86 7e 3b 10 c0 c5 bc 72 e0 bd 3c
       -0.008317144 0.0038837437 -0.024139434 0.023178313
0001f0 bc 8d 94 bb 46 e1 1b bd ae c0 0e bd e7 ca 42 3d
       -0.0045334976 -0.038056634 -0.034851722 0.047556784
000200 85 0f 92 3d 00 e9 65 3c 1f 35 ef bb 11 a3 10 3d
       0.07131866 0.014032602 -0.0073000337 0.035311762
000210 bb f1 51 b9 9e 80 25 3b b9 fb 52 3c ec d1 c5 3d
       -0.00020021845 0.0025253664 0.012877398 0.0965918
000220 4f 7f 12 bc 54 a3 9b 3c 48 f7 ee 3b ca a7 9b 3a
       -0.008941486 0.01899878 0.007292662 0.0011875567
000230 23 37 ad bb ad 81 c0 3c 29 1e d2 bc c2 ed a7 bc
       -0.005286114 0.023499334 -0.025649147 -0.020499114
000240 1b 19 ce 3c 42 63 9f 3c 6d e8 88 3b a4 ba 00 bd
       0.025158456 0.01945651 0.004178098 -0.031427994
000250 1e df 39 3e 33 1c 15 bc 26 16 35 3b 94 f8 f5 bb
       0.18151519 -0.0091009615 0.002763161 -0.0075064395
000260 81 9d 0f 3c 95 12 b4 bc d2 ed 9f 3b dc 5f ae 3c
       0.008765579 -0.021981517 0.0048806453 0.021285944
000270 5c 16 b4 bc df a2 5c bc f3 a4 12 bd 34 60 ac 38
       -0.021983318 -0.013466566 -0.03580184 8.219518e-05
000280 b7 9a 86 3c ff 8d 5b bc 9e 43 7d bb e0 21 1f bc
       0.016431196 -0.013400554 -0.003864504 -0.009712666
000290 05 5b d6 3c 4a 27 e7 bc b7 b0 5d bc b7 a2 02 bd
       0.026166448 -0.028216977 -0.013530902 -0.03189346
0002a0 5c 36 3a 3b 29 ae 06 bc 0c 2f 48 3c f7 3c f9 3c
       0.0028413748 -0.008220234 0.012218248 0.030424578
0002b0 77 da 10 3c e1 b3 3e 3c 80 b9 9f bb 50 19 ec 3b
       0.008841149 0.011639566 -0.0048744082 0.007205166
0002c0 41 2b 27 bc 8c 74 fc 3c 4f 9a b1 bc 37 38 47 3c
       -0.010203184 0.030817293 -0.021680025 0.012159399
0002d0 c5 f8 2a bc 0b 33 6c 3c e8 24 33 3c 3c cf e8 bc
       -0.010435288 0.0144164665 0.010934092 -0.02841913
0002e0 b2 ac ad bc f3 d2 9d bb 45 35 7a 3a dc 6b 4e bc
       -0.021200512 -0.004816407 0.0009544681 -0.012598958
0002f0 11 a8 9a 3c e0 7c a7 bc 87 f8 70 3c 16 bb a0 3b
       0.018878968 -0.020445287 0.014707691 0.004905115
000300 56 df 99 bb 94 42 7c bc 9a 5e a3 3c 67 28 a0 3c
       -0.004695813 -0.015396733 0.01994257 0.019550515
000310 8d 05 c3 ba 73 8e ad 3b c5 61 24 bd 11 bf a8 bb
       -0.0014878974 0.0052965223 -0.040132303 -0.00514973
000320 81 a0 8d bb de f3 fd 3b 7e 80 e7 ba d3 94 ba 3b
       -0.004322112 0.0077500185 -0.0017662195 0.0056940108
000330 d5 8f e6 38 db 0f 59 bc 88 9b 0a bc d1 94 c8 3c
       0.000109940454 -0.013248409 -0.008459933 0.024485024
000340 33 52 fe 3b 44 22 fa 3b 1e 8a e1 3b 86 65 25 3d
       0.0077612638 0.0076334793 0.00688292 0.040380023
000350 f7 ca 24 bc de 42 ac bc e4 ed c6 bc c5 f3 12 3d
       -0.010058156 -0.021027979 -0.024283357 0.035877008
000360 05 64 27 3d 43 88 c0 3c dc 4c 5b bc df 4e 76 3c
       0.04086687 0.023502475 -0.013385024 0.015033453
000370 79 31 bc bc 76 5d 2c bc e3 02 36 bc b4 74 48 bc
       -0.02297281 -0.01052033 -0.011109087 -0.012234855
000380 25 a1 03 bb 66 cb 85 bb e3 02 3e 3b 2b bf 4d 3b
       -0.0020085063 -0.004083085 0.002899342 0.0031394463
000390 66 9b c4 bc bf 23 da bc 75 93 1d 3e d4 b2 07 3d
       -0.023999881 -0.026628373 0.15388282 0.03312953
0003a0 a4 5f c9 bc 9b db 82 bb 01 88 33 3c 89 70 6e bc
       -0.024581738 -0.003993464 0.010957719 -0.014553198
0003b0 b1 93 0e bc 2f 00 19 be b5 61 14 3d be 65 8c 3b
       -0.008702205 -0.14941476 0.036225993 0.0042845896
0003c0 8c e8 b7 ba f7 a4 01 3c 5a 3d 2a bd c6 ee 32 3d
       -0.0014031096 0.007912866 -0.041562416 0.043684743
0003d0 10 88 61 ba 09 94 a2 bc 49 fc 07 3d 30 55 a8 bc
       -0.0008603344 -0.01984598 0.033199582 -0.020548433
0003e0 32 f8 90 3c 27 cc 51 bb db af c1 bb 1d 90 dc 3b
       0.017696474 -0.0032012553 -0.005910856 0.006731047
0003f0 7e 20 3f 3c cf bd 56 3b 25 51 07 bd b9 a1 d8 bc
       0.011665462 0.0032766943 -0.03303637 -0.026444303

layers.1.weight_rho f4 [200, 200]
000000 29 4d 42 c0 aa 51 41 c0 27 44 43 c0 69 38 43 c0
       -3.0359595 -3.0206094 -3.0510347 -3.050318
000010 82 5b 40 c0 d1 59 3e c0 1f 26 43 c0 6e d8 42 c0
       -3.0055852 -2.974232 -3.0492017 -3.0444598
000020 0a 18 41 c0 4b 5f 43 c0 15 50 43 c0 40 67 43 c0
       -3.0170922 -3.0526912 -3.0517628 -3.0531769
000030 52 b4 42 c0 c7 6d 43 c0 a9 98 3e c0 6c 45 42 c0
       -3.0422559 -3.0535753 -2.9780676 -3.0354872
000040 d4 2d 43 c0 e6 38 43 c0 59 48 43 c0 bd d4 42 c0
       -3.0496721 -3.0503478 -3.0512908 -3.0442345
000050 da 01 43 c0 de 1c 43 c0 6b 81 41 c0 ce fb 42 c0
       -3.046988 -3.048637 -3.023524 -3.046619
000060 db 10 43 c0 06 11 43 c0 c9 bb 41 c0 85 e6 42 c0
       -3.0479038 -3.047914 -3.0270865 -3.0453198
000070 0f fb 42 c0 8a 0e 43 c0 f0 5f 42 c0 e3 7b 3f c0
       -3.0465734 -3.0477624 -3.0371056 -2.9919364
000080 4c 59 43 c0 1d bb 40 c0 9e 56 43 c0 db a7 3e c0
       -3.0523252 -3.0114205 -3.0521617 -2.978995
000090 fc 97 3f c0 55 28 43 c0 a7 45 40 c0 fe 3c 43 c0
       -2.9936514 -3.0493367 -3.0042512 -3.0505977
0000a0 d5 a1 42 c0 38 8a 43 c0 d0 e0 42 c0 51 48 40 c0
       -3.0411274 -3.0553112 -3.0449715 -3.0044138
0000b0 f0 1c 43 c0 af 46 42 c0 f0 54 43 c0 de 8e 41 c0
       -3.0486412 -3.0355642 -3.0520592 -3.024345
0000c0 4e 83 43 c0 48 53 43 c0 7a 5f 43 c0 5f 2a 43 c0
       -3.0548892 -3.051958 -3.0527024 -3.0494611
0000d0 d1 44 43 c0 98 34 43 c0 fa f9 42 c0 4c cf 40 c0
       -3.0510752 -3.050085 -3.0465074 -3.0126524
0000e0 62 33 43 c0 20 74 3e c0 60 ac 42 c0 9d 68 43 c0
       -3.0500112 -2.9758377 -3.041771 -3.05326
0000f0 7a b1 42 c0 fe 22 43 c0 3f 22 43 c0 a2 55 43 c0
       -3.0420823 -3.0490108 -3.0489652 -3.0521016
000100 f3 2f 43 c0 37 5c 3f c0 d0 36 43 c0 37 df 42 c0
       -3.0498016 -2.9900033 -3.0502205 -3.044874
000110 fc aa 42 c0 63 52 43 c0 17 a2 42 c0 a9 fc 42 c0
       -3.041686 -3.0519035 -3.0411432 -3.0466712
000120 b6 67 42 c0 ba 41 41 c0 c7 1e 43 c0 36 d0 42 c0
       -3.03758 -3.0196366 -3.0487535 -3.0439582
000130 b4 f7 42 c0 55 10 43 c0 09 70 42 c0 c7 44 43 c0
       -3.0463686 -3.0478718 -3.038088 -3.0510728
000140 70 a3 42 c0 68 25 43 c0 7b 7b 42 c0 43 38 42 c0
       -3.0412254 -3.049158 -3.0387866 -3.034684
000150 59 90 41 c0 10 2d 42 c0 d7 a9 3f c0 56 5a 43 c0
       -3.0244353 -3.0340004 -2.9947412 -3.0523887
000160 dc 31 43 c0 b1 e2 42 c0 54 fa 41 c0 a5 3f 43 c0
       -3.0499182 -3.0450861 -3.0309038 -3.0507596
000170 b0 cb 41 c0 6b c2 42 c0 da 37 43 c0 f5 33 43 c0
       -3.028057 -3.0431163 -3.050284 -3.0500462
000180 f8 ba 42 c0 15 28 43 c0 1b 4b 42 c0 7d 5f 43 c0
       -3.0426617 -3.0493214 -3.035834 -3.0527031
000190 cd 00 42 c0 69 f6 3e c0 ad 37 40 c0 f4 3d 42 c0
       -3.0312989 -2.9837897 -3.0033982 -3.0350313
0001a0 da 98 42 c0 13 4b 43 c0 79 30 43 c0 0b 91 3e c0
       -3.0405793 -3.0514572 -3.0498335 -2.9776027
0001b0 c9 46 41 c0 8c ad 42 c0 20 86 43 c0 3e 5b 43 c0
       -3.0199454 -3.0418425 -3.0550613 -3.052444
0001c0 39 a8 42 c0 72 0a 43 c0 84 b3 42 c0 bd 24 43 c0
       -3.0415175 -3.0475125 -3.0422068 -3.0491173
0001d0 15 37 43 c0 af 0f 43 c0 c6 06 43 c0 f8 00 43 c0
       -3.050237 -3.0478323 -3.0472884 -3.0469341
0001e0 92 ac 42 c0 e2 d9 42 c0 5e 60 43 c0 5c 23 43 c0
       -3.0417829 -3.0445485 -3.0527568 -3.0490332
0001f0 a3 0c 43 c0 57 39 43 c0 d3 ba 42 c0 53 65 3f c0
       -3.0476463 -3.0503747 -3.0426528 -2.9905593
000200 01 2d 43 c0 55 5b 43 c0 24 53 43 c0 d8 64 43 c0
       -3.0496218 -3.0524495 -3.0519495 -3.05303
000210 f9 6f 42 c0 a1 2a 43 c0 3a ce 42 c0 b1 7f 3e c0
       -3.0380843 -3.0494769 -3.043837 -2.9765437
000220 58 ea 42 c0 83 b6 41 c0 b3 fb 42 c0 1a d8 42 c0
       -3.0455532 -3.0267646 -3.0466125 -3.0444398
000230 b7 de 3e c0 05 f7 42 c0 7f f3 42 c0 d1 73 42 c0
       -2.9823434 -3.0463269 -3.0461118 -3.0383189
000240 fa 2a 43 c0 3a 3f 43 c0 1e dc 42 c0 29 bd 3f c0
       -3.049498 -3.050734 -3.044685 -2.9959204
000250 44 ca 3e c0 75 2d 43 c0 04 39 42 c0 14 26 43 c0
       -2.9810953 -3.0496495 -3.03473 -3.049199
000260 fd db 42 c0 f2 36 43 c0 15 6b 42 c0 39 d7 42 c0
       -3.044677 -3.0502286 -3.0377858 -3.0443861
000270 0e 42 43 c0 f9 ec 41 c0 e8 69 43 c0 82 2e 43 c0
       -3.0509067 -3.0300887 -3.053339 -3.0497136
000280 b8 60 3f c0 2b 35 41 c0 c4 67 42 c0 8b f9 42 c0
       -2.9902782 -3.01887 -3.0375834 -3.046481
000290 76 04 42 c0 5a 23 43 c0 3b 3d 43 c0 dc 18 43 c0
       -3.0315223 -3.0490327 -3.0506122 -3.0483923
0002a0 c8 b1 42 c0 d7 4c 43 c0 5f 80 42 c0 40 2e 43 c0
       -3.042101 -3.051565 -3.0390851 -3.0496979
0002b0 ca 87 40 c0 ca ad 40 c0 83 5f 41 c0 d0 96 42 c0
       -3.008288 -3.0106072 -3.0214546 -3.0404549
0002c0 0e 0d 43 c0 e0 dd 40 c0 ea 27 43 c0 a7 ec 41 c0
       -3.0476718 -3.0135422 -3.0493112 -3.030069
0002d0 17 49 42 c0 64 3c 40 c0 93 a0 41 c0 25 10 43 c0
       -3.035711 -3.003686 -3.0254257 -3.0478604
0002e0 be 3e 43 c0 0e 6c 42 c0 f9 82 43 c0 f3 8d 42 c0
       -3.0507045 -3.0378451 -3.054869 -3.039914
0002f0 40 bf 41 c0 e8 e0 42 c0 dc 38 43 c0 76 e0 40 c0
       -3.027298 -3.0449772 -3.0503454 -3.0137
000300 14 05 43 c0 bb e7 42 c0 e9 44 42 c0 9d e3 3f c0
       -3.047185 -3.0453937 -3.035456 -2.9982674
000310 86 04 43 c0 10 59 41 c0 9f 09 43 c0 c7 59 43 c0
       -3.047151 -3.021061 -3.0474622 -3.0523546
000320 34 48 43 c0 dc 10 43 c0 a4 08 42 c0 ef 90 40 c0
       -3.051282 -3.047904 -3.0317774 -3.008846
000330 ce 51 43 c0 e3 f7 42 c0 54 1e 43 c0 51 37 43 c0
       -3.051868 -3.0463798 -3.048726 -3.0502512
000340 29 f0 42 c0 0c 43 43 c0 97 17 43 c0 4f 43 43 c0
       -3.0459082 -3.0509672 -3.0483148 -3.0509832
000350 46 f2 42 c0 1b fb 42 c0 34 9f 42 c0 2f 4c 43 c0
       -3.0460372 -3.0465763 -3.040967 -3.0515249
000360 97 8d 43 c0 c7 e6 42 c0 c8 e1 42 c0 9b 54 42 c0
       -3.055517 -3.0453355 -3.0450306 -3.036414
000370 3e 2b 43 c0 c9 48 43 c0 d4 d8 41 c0 2c f6 41 c0
       -3.0495143 -3.0513175 -3.0288591 -3.0306501
000380 03 eb 42 c0 3b 09 43 c0 81 76 42 c0 81 7a 42 c0
       -3.045594 -3.0474384 -3.038483 -3.038727
000390 48 12 43 c0 ec dc 42 c0 2b bb 3e c0 1e 2e 3f c0
       -3.0479908 -3.044734 -2.9801738 -2.9871898
0003a0 27 0b 3f c0 16 e9 40 c0 18 51 43 c0 12 45 3f c0
       -2.9850557 -3.0142264 -3.0518246 -2.9885907
0003b0 05 4d 43 c0 cd c8 3e c0 aa cd 41 c0 5a 66 3f c0
       -3.051576 -2.981006 -3.0281777 -2.990622
0003c0 97 f9 42 c0 f9 bd 41 c0 19 fe 42 c0 dd fa 42 c0
       -3.0464838 -3.02722 -3.046759 -3.0465615
0003d0 3a c4 42 c0 25 de 42 c0 d6 2d 43 c0 b1 5a 43 c0
       -3.0432267 -3.0448086 -3.0496726 -3.0524104
0003e0 ae 3e 43 c0 5f 34 43 c0 6d 74 41 c0 ac 35 43 c0
       -3.0507007 -3.0500715 -3.022731 -3.0501509
0003f0 94 c2 42 c0 98 4b 43 c0 f4 cd 42 c0 70 34 43 c0
       -3.043126 -3.0514889 -3.0438204 -3.0500755

layers.1.bias_mu f4 [200]
000000 a2 e3 c6 3b 0f 1b a0 bc df 7e 0c bd 12 11 8d 3c
       0.0060696164 -0.019544153 -0.03430068 0.017220054
000010 bc c5 f4 bc 50 2c 1c 3b 03 e3 f3 bc bf d0 37 bd
       -0.029879443 0.0023830123 -0.029771334 -0.04487681
000020 e2 14 76 3e af 83 6b 3c cd 7f 26 3d 80 ca 14 bd
       0.24031404 0.0143746575 0.040649224 -0.03632593
000030 2e 8e c7 bc b2 8e 32 bc b2 2e 3a bd 1b af 48 bb
       -0.024359789 -0.010898279 -0.04545469 -0.003062195
000040 ce c6 8f bc ca d3 59 bb 78 8e 86 3e 33 47 07 bc
       -0.017550852 -0.0033237808 0.2628057 -0.008256721
000050 0d 12 44 3b af 0f 52 3e f5 e2 2f 3d 09 7c c1 3a
       0.0029917986 0.20513795 0.042941052 0.0014761697
000060 d3 e6 77 bd af cb bc bc b0 5e 35 3e 76 06 ae 3b
       -0.060522866 -0.023046343 0.17711902 0.005310829
000070 2a 4b 91 bb 7e 07 fa 3d fb 2b 29 3c c5 87 c5 bb
       -0.004434009 0.1220846 0.010325427 -0.006028148
000080 29 13 e8 bc 6f 05 0d bc 49 0c 0a 3d cc 11 45 bc
       -0.028329449 -0.0086072525 0.033703122 -0.012028169
000090 8e 20 a5 bc 21 39 b6 bc db d4 f4 bc 6d 49 11 3a
       -0.020157125 -0.022244038 -0.029886654 0.00055422523
0000a0 92 c7 b1 3b d3 c2 a0 3c e3 c4 2a bd a9 f7 4b bc
       0.005425402 0.01962415 -0.041691672 -0.0124491835
0000b0 4a 2e 7b bb 73 e1 dd bc 2d 1a 0c 3d ce 14 46 3c
       -0.003832715 -0.027085042 0.03420465 0.012089921
0000c0 b1 67 ac 3c 86 33 e7 bd 4c 17 3d bc 33 28 11 bc
       0.021045538 -0.11289124 -0.011541199 -0.008859682
0000d0 a4 13 eb bc eb bc f7 bb 42 09 be bc dc 8b 4c bc
       -0.028695889 -0.0075603626 -0.023197774 -0.012484517
0000e0 2c 8c e0 3c d4 cb e4 bc 80 39 62 bc 1f 6c ae bc
       0.02741059 -0.027929224 -0.013807654 -0.02129179
0000f0 c4 85 cd 3c c6 e0 16 3c 45 00 06 3b 8d d9 91 bc
       0.025088198 0.009208864 0.0020446938 -0.017803932
000100 88 d5 40 bc 46 98 76 3c f2 b0 9f 3c 1f c4 28 3e
       -0.01176966 0.015050953 0.019493554 0.16481064
000110 80 6d 4e bc 4b 1e 48 3b 83 88 54 3c 25 85 2d bd
       -0.012599349 0.0030535634 0.012972 -0.042363305
000120 b0 fc 2a b9 08 58 90 bc 2e 7c 3d 3c 17 15 98 bc
       -0.00016306597 -0.017620102 0.011565251 -0.018564744
000130 99 63 af 3c 0c 78 87 bc 78 7f 31 3d 26 ff c6 ba
       0.021409797 -0.016536735 0.043334454 -0.0015182241
000140 18 3d a2 bc 0b c0 67 bc 33 22 cb 3a 86 16 24 3b
       -0.019804522 -0.014144908 0.0015497863 0.002503784
000150 bb 58 59 3b ec aa 10 bc 33 5f 4d 3c 15 b2 b6 bd
       0.003316446 -0.008829813 0.012534904 -0.08920685
000160 7e ac 8a bc 45 81 04 3b cf 65 f0 bc 52 a3 66 3c
       -0.016927954 0.0020218652 -0.029345421 0.014077025
000170 87 25 0e bd 4b 28 95 be b5 31 9d 3c c9 a5 8e bc
       -0.034703758 -0.29132304 0.019188741 -0.017413037
000180 71 f3 87 3c 16 8e 00 bb 13 45 9c bc 53 1a 66 3c
       0.016595574 -0.001961594 -0.019075906 0.014044362
000190 7c 78 ab bb 5f 70 2e bc 18 0e 01 3c 18 ef 8b bc
       -0.0052328687 -0.010646909 0.007876895 -0.017081782
0001a0 f0 e8 19 bd 2f c0 2c bb 14 f8 42 bc c2 83 b3 3c
       -0.037575662 -0.0026359668 -0.011899967 0.021913413
0001b0 50 05 c4 3e e7 de f2 ba 64 cf 82 bd 91 29 17 bd
       0.38285303 -0.0018529565 -0.06387213 -0.036904875
0001c0 6b 3f 59 3c 7d 56 4a 3b ef ba 21 bc 6f b7 c0 bc
       0.013259749 0.0030874305 -0.009871229 -0.023524968
0001d0 76 9d c4 bc 55 2c 3e bd d5 8b 8e 3e b5 e7 2f 3e
       -0.024000864 -0.046428997 0.27841058 0.17178233
0001e0 93 ea a2 3c 1d ae fc 3b 40 10 94 3c 4e b7 5a 3c
       0.019887244 0.0077111856 0.018074155 0.013349367
0001f0 7c f3 35 3c e5 c4 cf bc e3 99 ee bb 05 c6 77 ba
       0.0111054145 -0.025362441 -0.0072815283 -0.00094518095
000200 b1 ea 88 3c 26 92 19 3d c2 14 de 3c bb b9 c4 bc
       0.016713472 0.037492894 0.027109507 -0.024014344
000210 d4 f3 c5 bc d8 ca 53 bc c0 a1 c8 bc 10 71 76 bb
       -0.024164118 -0.01292678 -0.02449119 -0.0037604012
000220 37 26 0b 3d 0c b1 17 bc 0e 08 fe 3c 95 d8 47 3c
       0.03397199 -0.00925852 0.0310097 0.012197633
000230 6a 80 99 bb 44 01 ea 3c 24 a9 84 3c 31 63 9f 3c
       -0.0046844976 0.028565057 0.016193934 0.019456478
000240 f7 86 7d 3c 2e b4 27 3e 9e 81 08 3c e6 39 82 3b
       0.015474073 0.16377327 0.008331684 0.003974187
000250 c0 dd 5f 3a 44 37 e8 3b f4 3c 7b bb d9 5b 9c 3e
       0.0008539818 0.0070866663 -0.0038335891 0.30538824
000260 b9 3b 3d 3b 75 2e ad bc 6e 2d dd bb 5e a1 90 3c
       0.0028874709 -0.021140317 -0.0067498004 0.01765507
000270 cb 42 09 bc 1b 63 a8 bc 28 f0 86 bc ca ef 9b bc
       -0.008377741 -0.02055507 -0.016471937 -0.019035239
000280 ed bf ae 3c 50 75 64 3c 4b 28 c1 3c d3 99 b5 bc
       0.021331752 0.013943985 0.023578783 -0.022168076
000290 a1 d0 a1 bc 1e b1 a4 3e f1 e8 15 3f 35 2b b7 bc
       -0.019752802 0.3216638 0.58558565 -0.02235947
0002a0 bd 12 76 b9 17 b2 02 bb 24 52 95 bc ba 34 74 3c
       -0.00023467369 -0.0019942576 -0.018227644 0.014905149
0002b0 c6 d3 39 bc d6 c2 8e bc 55 43 df bb 94 0a b9 3b
       -0.011341995 -0.01742689 -0.0068134465 0.005647013
0002c0 23 a2 eb bb a6 dd 3f bb db ed 48 3a ab cb 6c bc
       -0.007190959 -0.00292764 0.0007664838 -0.014452855
0002d0 a3 79 09 3b 43 6d cd 3a 7b 4e 91 bc d0 76 00 3c
       0.0020977042 0.0015672821 -0.017737618 0.007840827
0002e0 fe e0 d0 3e 8b a2 ba 3b a1 88 64 bc 24 05 a7 bc
       0.40796655 0.005695646 -0.0139485905 -0.020388193
0002f0 de 3c fa ba 16 ef d1 bd 27 61 2a bd e1 0b bf bb
       -0.0019091626 -0.1025068 -0.041596558 -0.0058302735
000300 d8 35 04 3d 20 39 89 3b ba c6 c3 bc 5b 8a 31 bc
       0.032277912 0.004187718 -0.023898471 -0.010836209
000310 2c 0f 84 3e cc 77 d9 3a fb f2 55 bd 0a 91 96 3e
       0.25792825 0.0016591488 -0.052233677 0.2940753

layers.1.bias_rho f4 [200]
000000 ff 0a 43 c0 fe 1c 43 c0 78 1e 43 c0 2c 4a 42 c0
       -3.0475461 -3.0486445 -3.0487347 -3.035777
000010 37 fb 42 c0 97 f8 3e c0 c4 c6 43 c0 95 57 42 c0
       -3.046583 -2.9839227 -3.0590067 -3.0365956
000020 f5 6a 3f c0 d8 65 43 c0 97 7f 43 c0 1c 46 43 c0
       -2.9909031 -3.053091 -3.0546625 -3.0511541
000030 f6 6c 43 c0 18 2a 43 c0 b6 4a 42 c0 80 ad 43 c0
       -3.0535254 -3.0494442 -3.03581 -3.0574646
000040 88 e3 44 c0 18 24 43 c0 65 7c 3f c0 53 18 45 c0
       -3.0763874 -3.049078 -2.9919674 -3.0796096
000050 3b dd 42 c0 59 fe 41 c0 df 2d 43 c0 02 43 43 c0
       -3.0447528 -3.0311491 -3.0496747 -3.0509648
000060 e0 23 3f c0 3b a8 45 c0 33 f4 42 c0 80 d1 43 c0
       -2.9865646 -3.088393 -3.0461547 -3.0596619
000070 6f 11 43 c0 4f 76 3f c0 16 6c 43 c0 12 1b 43 c0
       -3.047939 -2.991596 -3.053472 -3.0485272
000080 ab ae 43 c0 c5 30 44 c0 83 22 43 c0 5c a9 43 c0
       -3.057536 -3.0654767 -3.0489814 -3.0572119
000090 5f 0c 44 c0 7d 49 43 c0 7b cb 42 c0 4b ad 42 c0
       -3.063255 -3.0513604 -3.0436695 -3.041827
0000a0 34 5c 43 c0 1a 04 43 c0 46 ab 44 c0 ee e6 42 c0
       -3.0525026 -3.0471253 -3.0729537 -3.0453448
0000b0 1c 20 43 c0 2b dd 42 c0 c7 c5 42 c0 99 b3 43 c0
       -3.0488348 -3.044749 -3.0433214 -3.0578368
0000c0 ac 3f 43 c0 6d 92 3e c0 5f 82 43 c0 f7 c2 42 c0
       -3.0507612 -2.9776871 -3.0548322 -3.0431497
0000d0 26 70 48 c0 e7 06 45 c0 83 09 43 c0 be a7 41 c0
       -3.131845 -3.0785463 -3.0474555 -3.0258632
0000e0 bb 58 43 c0 b8 b9 44 c0 b4 a2 42 c0 73 4b 43 c0
       -3.0522907 -3.0738354 -3.0411806 -3.05148
0000f0 35 81 47 c0 18 6b 43 c0 a3 95 42 c0 29 46 43 c0
       -3.1172612 -3.0534115 -3.040383 -3.0511572
000100 22 f0 43 c0 8b 03 43 c0 0e 8c 42 c0 94 80 3f c0
       -3.0615315 -3.0470912 -3.0397983 -2.9922228
000110 e5 50 43 c0 b2 e8 42 c0 b2 29 41 c0 0f d8 42 c0
       -3.0518124 -3.0454526 -3.0181699 -3.0444372
000120 8d 15 44 c0 e9 c1 42 c0 f1 10 43 c0 b7 88 43 c0
       -3.0638154 -3.0430853 -3.047909 -3.0552194
000130 55 d4 42 c0 9a c6 43 c0 78 d0 42 c0 e6 46 43 c0
       -3.0442097 -3.0589967 -3.043974 -3.0512023
000140 ea 34 45 c0 1b 41 42 c0 bb 62 42 c0 82 7e 44 c0
       -3.0813546 -3.0352237 -3.037276 -3.0702214
000150 81 97 43 c0 50 f5 3f c0 0d 5a 43 c0 55 8c 3e c0
       -3.056122 -2.9993477 -3.0523713 -2.9773152
000160 44 f2 44 c0 7f 2d 43 c0 c3 59 43 c0 98 04 43 c0
       -3.0772867 -3.0496519 -3.0523536 -3.0471554
000170 41 50 3e c0 06 08 44 c0 e3 bc 42 c0 1e e7 42 c0
       -2.9736483 -3.0629897 -3.0427787 -3.0453563
000180 be 25 43 c0 c6 3a 44 c0 50 c5 43 c0 46 a4 42 c0
       -3.0491786 -3.0660872 -3.058918 -3.0412765
000190 01 0f 45 c0 29 b7 42 c0 aa 3d 43 c0 83 79 43 c0
       -3.0790408 -3.0424292 -3.0506387 -3.0542915
0001a0 d8 6e 43 c0 9b e0 43 c0 82 17 40 c0 08 7e 3f c0
       -3.0536404 -3.0605838 -3.0014348 -2.9920673
0001b0 0f 05 40 c0 37 4c 43 c0 84 cd 44 c0 89 89 42 c0
       -3.0003088 -3.0515268 -3.0750437 -3.0396445
0001c0 99 30 44 c0 36 26 43 c0 52 84 43 c0 c1 5f 43 c0
       -3.0654662 -3.0492072 -3.0549512 -3.0527194
0001d0 2d 0e 43 c0 86 70 41 c0 b5 69 3f c0 6d 46 3f c0
       -3.0477402 -3.022493 -2.9908268 -2.9886734
0001e0 12 9f 45 c0 f8 38 43 c0 80 bd 43 c0 d8 8a 40 c0
       -3.087834 -3.050352 -3.0584412 -3.0084743
0001f0 4f 2f 43 c0 f2 71 42 c0 45 70 43 c0 a8 50 43 c0
       -3.0497625 -3.0382047 -3.0537274 -3.0517979
000200 42 2b 43 c0 9f 40 43 c0 dc 8b 43 c0 ae 69 42 c0
       -3.0495152 -3.0508192 -3.0554113 -3.0377002
000210 45 0c 43 c0 3e ac 42 c0 2f a1 44 c0 75 3b 42 c0
       -3.0476239 -3.0417628 -3.0723379 -3.034879
000220 3b 54 43 c0 94 b7 40 c0 cb 4f 43 c0 ee 38 40 c0
       -3.052016 -3.0112047 -3.0517452 -3.0034747
000230 87 2e 43 c0 c7 88 43 c0 96 c6 42 c0 f0 85 42 c0
       -3.0497148 -3.0552232 -3.0433707 -3.039425
000240 81 0a 43 c0 53 4a 3f c0 68 86 40 c0 8d 7e 44 c0
       -3.047516 -2.9889114 -3.0082035 -3.070224
000250 d8 99 43 c0 b2 8e 43 c0 db d9 43 c0 64 59 3f c0
       -3.0562649 -3.0555844 -3.0601718 -2.989831
000260 e3 20 43 c0 79 48 43 c0 e3 ef 42 c0 4d 64 42 c0
       -3.0488822 -3.0512984 -3.0458915 -3.0373719
000270 63 19 43 c0 38 60 43 c0 c0 24 42 c0 f2 80 43 c0
       -3.0484245 -3.0527477 -3.033493 -3.0547452
000280 98 9e 42 c0 4c 21 42 c0 d3 72 43 c0 1a 14 43 c0
       -3.0409298 -3.0332823 -3.0538833 -3.048102
000290 6b c6 45 c0 c6 12 40 c0 1d 0e 40 c0 18 45 42 c0
       -3.0902355 -3.0011458 -3.0008614 -3.0354671
0002a0 86 d8 45 c0 ef 4b 42 c0 28 a0 43 c0 f9 79 43 c0
       -3.0913405 -3.0358846 -3.0566502 -3.0543196
0002b0 2a db 3f c0 38 9a 42 c0 21 a0 43 c0 05 24 43 c0
       -2.9977517 -3.0406628 -3.0566485 -3.0490735
0002c0 5b 58 43 c0 14 67 42 c0 f7 67 40 c0 83 d6 42 c0
       -3.0522678 -3.0375414 -3.0063455 -3.0443428
0002d0 62 9b 41 c0 6c 74 44 c0 54 40 42 c0 93 bb 42 c0
       -3.0251088 -3.0696058 -3.0351763 -3.0426986
0002e0 a9 f6 42 c0 fd b6 43 c0 1e fc 42 c0 55 37 43 c0
       -3.046305 -3.0580437 -3.046638 -3.0502522
0002f0 ba 38 43 c0 27 75 3e c0 15 73 45 c0 b4 23 42 c0
       -3.0503373 -2.9759004 -3.085149 -3.0334291
000300 7b 0b 43 c0 b1 cb 42 c0 fa 48 44 c0 9c a1 42 c0
       -3.0475757 -3.0436823 -3.0669541 -3.0411139
000310 4d 45 3f c0 d5 24 43 c0 8d ed 42 c0 e6 9f 40 c0
       -2.9886048 -3.049123 -3.045749 -3.0097594
